checkpoints/domtree_gnn_main.pt (torch, 173740 bytes, 18 tensors)

node_emb.weight f4 [3, 64]
-1.7472908 1.0463954 -0.5484174 -0.35480902 -0.13214524 -0.80045605 0.09465564 -1.584076
0.16930309 0.6090806 -0.6757707 -1.0797765 0.092041574 0.23212336 0.03700893 0.22254418
0.042537242 0.28129584 2.059169 0.049991563 0.33636156 0.38541722 -1.0807134 0.5129694
0.026870275 -0.7914864 -0.9484559 -0.21250656 -0.28345907 0.495798 1.0207927 -1.5183855
1.8909401 1.2430582 -0.9133368 -1.3946259 -0.85889375 -1.3091033 0.40987757 0.059679396
-0.28469127 0.09700284 -0.5479237 -1.4844309 -0.60073346 0.1398379 0.16737144 -0.22586592
-0.7463742 0.57591903 -0.53050816 1.6319618 1.035756 -0.49974543 -0.578935 -0.048989855
0.2513743 -1.081787 -0.078835025 0.5766919 0.41763046 2.0523887 -0.96045685 1.1345235
-1.371161 0.77869266 -0.26848203 0.54228663 0.24286495 -0.30249026 -0.8610861 -0.026636472
-0.63430786 -1.0732735 1.3549955 0.36910233 0.062228486 0.061239082 -0.36433455 2.5378573
-0.8987199 -0.58775145 -1.890818 -0.55451685 -0.40708715 -0.64696425 -0.5592191 -1.2260394
0.5593254 0.40646604 0.3594436 0.76863134 -1.205437 0.77119833 -1.0336097 0.13336816
0.086301826 -0.8040927 2.8619635 0.24467137 1.6548489 1.2474494 1.6263154 -0.2394438
1.246042 1.1070424 0.7712315 -0.3200181 0.035750628 -0.9391827 1.9552804 0.20585938
1.4898719 -0.2660324 0.6888242 0.52760315 -1.0555631 0.037599284 0.06788891 0.20527816
-0.05771592 -0.96574545 0.98795 0.7203767 0.68377966 -0.28759485 -1.7452152 -0.05925172
0.639555 0.083055705 0.37046567 -1.510902 -0.16720365 0.07168967 -0.44120246 -0.25079095
-1.132817 0.45195773 0.7599653 1.2079375 -1.2589766 0.35932323 0.33268252 -0.64616364
0.58423775 0.37012476 0.025122972 -0.7681107 -0.61766744 -0.34012768 -0.38493857 1.2485204
0.14603534 -0.9751885 -0.65101206 0.4106582 0.86160094 -0.26062927 -2.27052 2.2132914
-0.6963792 -1.412952 0.37814853 0.8361592 -0.07822606 0.04332664 -0.13160788 -1.3951026
-1.407047 -1.1629295 -0.046758194 -0.06672043 0.38298386 0.8352728 -0.8840576 0.33727038
-2.2813518 0.22614527 -1.2614887 -0.10636772 0.46243012 -0.3169658 0.015403774 -0.16717283
1.1143578 1.5496824 -0.85702586 0.44163805 -0.014399708 0.56214887 1.0000733 1.0023539
00000000: 3aa7 dfbf 49f0 853f 1565 0cbf 87a9 b5be
00000010: 1551 07be b0ea 4cbf d1da c13d 01c3 cabf
00000020: ca5d 2d3e b5ec 1b3f 4fff 2cbf 1e36 8abf
00000030: 4b80 bc3d bfb1 6d3e ad96 173d 9fe2 633e
00000040: 883b 2e3d 0206 903e 6dc9 0340 f4c3 4c3d
00000050: 9537 ac3e 6855 c53e d154 8abf f651 033f
00000060: 0d1f dc3c da9e 4abf 02ce 72bf 529b 59be
00000070: 8c21 91be 3cd9 fd3e 56a9 823f 755a c2bf
00000080: 530a f23f 881c 9f3f 71d0 69bf 1a83 b2bf
00000090: 76e0 5bbf b290 a7bf 79db d13e 6272 743d
000000a0: 0ec3 91be 6da9 c63d ba44 0cbf d501 bebf
000000b0: abc9 19bf ab31 0f3e 6b63 2b3e 6549 67be
000000c0: 6112 3fbf 6e6f 133f 62cf 07bf 20e4 d03f
000000d0: a793 843f a2de ffbe 1635 14bf 96a9 48bd
000000e0: 22b4 803e ff77 8abf 4274 a1bd 15a2 133f
000000f0: a9d3 d53e 565a 0340 80e0 75bf 1138 913f
00000100: 3482 afbf 6758 473f 7a76 89be 4cd3 0a3f
00000110: 97b1 783e 01e0 9abe 2370 5cbf bb34 dabc
00000120: 0062 22bf 0761 89bf 7e70 ad3f fbfa bc3e
00000130: 4ce3 7e3d d5d5 7a3d 0f8a babe 416c 2240
00000140: 8212 66bf e176 16bf 5306 f2bf d1f4 0dbf
00000150: ba6d d0be 739f 25bf fc28 0fbf dcee 9cbf
00000160: f32f 0f3f 511c d03e fe08 b83e 06c5 443f
00000170: c24b 9abf 416d 453f 534d 84bf aa91 083e
00000180: 03bf b03d 05d9 4dbf 692a 3740 228b 7a3e
00000190: 17d2 d33f 6cac 9f3f 1a2b d03f c130 75be
000001a0: 4e7e 9f3f 91b3 8d3f 6d6f 453f 6ad9 a3be
000001b0: 406f 123d 476e 70bf a146 fa3f cdcc 523e
000001c0: 1fb4 be3f 6635 88be c856 303f 0011 073f
000001d0: b11c 87bf b501 1a3d 5709 8b3d 7034 523e
000001e0: 8767 6cbd 183b 77bf 4bea 7c3f 9b6a 383f
000001f0: 2f0c 2f3f a23f 93be 3663 dfbf eeb1 72bd
00000200: e0b9 233f 1c19 aa3d adad bd3e 3d65 c1bf
00000210: 6f37 2bbe 09d2 923d 4ae5 e1be ac67 80be
00000220: 2600 91bf 0167 e73e 168d 423f b29d 9a3f
00000230: 2526 a1bf 37f9 b73e 5d55 aa3e fb6a 25bf
00000240: 9b90 153f fe80 bd3e b1ce cd3c e7a2 44bf
00000250: 741f 1ebf 3725 aebe ab16 c5be 84cf 9f3f
00000260: 4a8a 153e f4a5 79bf baa8 26bf cb41 d23e
00000270: e191 5c3f 3371 85be 3350 11c0 91a6 0d40
00000280: e845 32bf 9cdb b4bf af9c c13e 880e 563f
00000290: fc34 a0bd 4677 313d 37c4 06be b992 b2bf
000002a0: 1e1a b4bf e0da 94bf 8585 3fbd b9a4 88bd
000002b0: 7616 c43e 70d4 553f 9951 62bf b4ae ac3e
000002c0: ab01 12c0 a092 673e 7678 a1bf 52d7 d9bd
000002d0: a4c3 ec3e 5749 a2be 1c60 7c3c 5b2f 2bbe
000002e0: 47a3 8e3f fe5b c63f 0c66 5bbf 621e e23e
000002f0: c1ec 6bbc fde8 0f3f 6702 803f 224d 803f

edge_emb.weight f4 [3, 64]
-1.0271512 1.2584722 0.19852579 0.7403062 0.031878978 1.0981213 0.1836603 0.7692912
0.11471552 -0.50202304 0.044769082 -2.703791 -0.13515452 1.3540609 -0.06958091 0.22953463
0.84015363 0.25085044 -0.57506776 0.5295732 1.3629861 0.118903495 0.25812432 0.5119886
1.0848726 0.97013676 -0.38282344 1.4202739 -0.86809766 0.42606613 2.0569272 0.99342716
1.29729 0.26866618 -0.06817735 -0.9845146 0.081273675 0.095126964 -0.701264 1.237814
-0.8980571 1.297116 2.2515357 0.5614913 -1.3782059 1.0787623 0.06792728 -0.5768809
-0.2299251 -0.12118065 0.09093843 -1.0646527 0.87645864 -0.61571175 0.77690893 -0.9680784
-1.3260275 -0.9854702 0.087343775 1.8816142 -0.8854288 -0.209299 2.4117603 -0.41797346
0.9897267 0.6901313 1.7286278 -0.03932476 -0.13153471 1.2677428 0.06187558 -1.9866925
-0.40907633 -1.3123099 1.5489416 0.9539145 0.14616647 -1.1780261 0.7292725 -0.1584474
0.02689748 -0.20259461 0.91884714 0.8822747 -0.26894346 0.13091844 -0.46010923 -0.7855031
-0.7130568 -0.31074739 0.06299672 -0.7042073 -0.42388344 -0.36250302 0.39227596 -0.4652739
0.40793186 -0.042707153 -0.21901034 0.83487815 0.8872542 0.24991675 0.032562748 -0.90262026
-1.4597371 -1.6864426 -1.3031294 -0.18660305 1.1681607 -1.8345257 -0.9135503 0.43240896
-0.005110199 -0.25348705 -0.40365222 0.79994303 -0.40079325 -1.0167984 -0.33255726 -0.47873348
0.2948683 0.5822424 1.1994648 -0.5918471 0.7872663 0.7666031 -1.1870618 1.8738611
1.6485988 0.644601 0.30343089 0.04751252 0.93417525 0.4065584 -1.9378239 0.812326
2.5270925 0.37768358 -2.065048 -0.40245733 -0.83864135 0.09391638 1.5507581 0.21071415
-0.3754753 -1.9004867 -0.16701256 -0.5789912 -0.80271524 0.5063771 1.5673707 1.6781312
-1.7502068 -0.8408569 0.117165685 -1.1854198 0.3620812 -0.093848996 1.8573318 -1.0005311
-1.0742688 1.0836824 0.25238383 1.062608 0.8396569 0.4168128 -1.7122489 0.29799575
0.22948238 -2.2327588 0.28990585 -1.9425849 1.1709633 0.47128782 -1.1031303 -0.9396977
1.9491295 0.007139193 2.7047927 0.0039889677 0.36695072 1.2843449 0.7388263 1.9628015
0.14411725 -2.3044157 -0.56681174 -0.19397706 -1.1152468 0.46786186 -0.5847647 -1.9335696
00000000: b179 83bf 9e15 a13f 584a 4b3e b584 3d3f
00000010: 8893 023d 3d8f 8c3f 7211 3c3e 45f0 443f
00000020: f8ef ea3d 9584 00bf c95f 373d e90a 2dc0
00000030: f265 0abe de51 ad3f 7080 8ebd 200b 6b3e
00000040: 4f14 573f 786f 803e a437 13bf 1c92 073f
00000050: 5476 ae3f ad83 f33d df28 843e af11 033f
00000060: 1bdd 8a3f e25a 783f 6f01 c4be 89cb b53f
00000070: a63b 5ebf 5725 da3e b2a4 0340 3e51 7e3f
00000080: 990d a63f 9d8e 893e 91a0 8bbd 2609 7cbf
00000090: d072 a63d edd1 c23d 0a86 33bf b070 9e3f
000000a0: 12e7 65bf e607 a63f 2919 1040 e5bd 0f3f
000000b0: 0d69 b0bf e214 8a3f 751d 8b3d 77ae 13bf
000000c0: 7c71 6bbe 902d f8bd ed3d ba3d 8a46 88bf
000000d0: 985f 603f 499f 1dbf 81e3 463f fcd3 77bf
000000e0: 45bb a9bf c647 7cbf 4be1 b23d bcd8 f03f
000000f0: 76ab 62bf 7a52 56be 485a 1a40 9e00 d6be
00000100: bb5e 7d3f 72ac 303f ad43 dd3f 0013 21bd
00000110: 09b1 06be 6545 a23f 4071 7d3d f14b febf
00000120: 7472 d1be c5f9 a7bf b843 c63f be33 743f
00000130: aaac 153e 8fc9 96bf 9ab1 3a3f 0940 22be
00000140: 1b58 dc3c f674 4fbe 9139 6b3f c1dc 613f
00000150: f5b2 89be 7c0f 063e 7093 ebbe bb16 49bf
00000160: e48a 36bf 481a 9fbe 6d04 813d ee46 34bf
00000170: 4007 d9be ff99 b9be 65d8 c83e 6138 eebe
00000180: 72dc d03e b2ed 2ebd 3f44 60be 93ba 553f
00000190: 1723 633f 2dea 7f3e 8460 053d 1f12 67bf
000001a0: aad8 babf 5add d7bf f2cc a6bf df14 3fbe
000001b0: 4a86 953f bdd1 eabf 6fde 69bf b564 dd3e
000001c0: 7573 a7bb 0ec9 81be 81ab cebe 11c9 4c3f
000001d0: c634 cdbe 7326 82bf f244 aabe 8e1c f5be
000001e0: faf8 963e d70d 153f 1088 993f 4b83 17bf
000001f0: 498a 493f 1a40 443f a4f1 97bf aeda ef3f
00000200: 4905 d33f 9204 253f 4b5b 9b3e 7d9c 423d
00000210: 1c26 6f3f 6c28 d03e 9d0a f8bf 99f4 4f3f
00000220: e2bb 2140 be5f c13e bf29 04c0 e30e cebe
00000230: 33b1 56bf 3b57 c03d 3e7f c63f 73c5 573e
00000240: 4c3e c0be 2643 f3bf 5705 2bbe c438 14bf
00000250: bf7e 4dbf eea1 013f 9a9f c83f 01cd d63f
00000260: c706 e0bf 6642 57bf 90f4 ef3d d6bb 97bf
00000270: b562 b93e e733 c0bd 0cbd ed3f 6711 80bf
00000280: a481 89bf 1bb6 8a3f 7438 813e 8a03 883f
00000290: c1f3 563f 7d68 d53e f92a dbbf e692 983e
000002a0: 6efd 6a3e 85e5 0ec0 8a6e 943e 9fa6 f8bf
000002b0: 20e2 953f a34c f13e 6033 8dbf 0790 70bf
000002c0: 137d f93f e4ef e93b 531b 2d40 e3b5 823b
000002d0: f7e0 bb3e 6a65 a43f b823 3d3f 143d fb3f
000002e0: 7993 133e 8c7b 13c0 931a 11bf eca1 46be
000002f0: 68c0 8ebf 978b ef3e 24b3 15bf 357f f7bf

root_proj.weight f4 [64, 1]
0.79858893 -1.607882 -1.52797 1.8493952 -1.7501966 -1.5660489 -1.3073412 -1.0444251
1.6751498 1.6857964 1.2023933 0.95923436 -1.4514962 -0.5957123 1.7556169 1.1444286
0.5091465 0.23659988 1.1250945 1.1737846 -1.4835511 -1.7597666 1.1117156 1.6996133
-0.04107094 -0.9236484 1.4521478 1.4464089 1.0657138 1.1007869 -1.459967 1.2210464
-1.9667368 -0.8524885 -0.8027145 -1.4243246 -1.4542983 -0.8827376 1.7072239 1.9455565
1.5627277 1.4099593 0.9364909 1.5145217 -1.8534831 1.1698385 -1.4010402 -1.708408
-1.5712581 1.7384682 0.07958555 0.39358798 -0.82114977 -1.1808039 -1.6086535 -0.06406596
-1.1449795 0.0781612 1.8596817 -1.016072 -1.5826964 0.34382015 -1.2077681 -1.978968
00000000: 5370 4c3f 14cf cdbf 8594 c3bf fbb8 ec3f
00000010: 7106 e0bf 4a74 c8bf f556 a7bf b9af 85bf
00000020: 4f6b d63f 2dc8 d73f 06e8 993f 6290 753f
00000030: a1ca b9bf 9a80 18bf 0eb8 e03f a37c 923f
00000040: 6d57 023f 3d47 723e 1903 903f 933e 963f
00000050: 01e5 bdbf 0840 e1bf b24c 8e3f ee8c d93f
00000060: 013a 28bd 3974 6cbf fbdf b93f ed23 b93f
00000070: 4f69 883f 96e6 8c3f 33e0 babf 404b 9c3f
00000080: 08be fbbf b03c 5abf b37e 4dbf 4550 b6bf
00000090: 7226 babf 17fb 61bf 5086 da3f ff07 f93f
000000a0: 7607 c83f 8c79 b43f debd 6f3f d9db c13f
000000b0: ef3e edbf 45bd 953f 4955 b3bf 1dad dabf
000000c0: fc1e c9bf 2086 de3f c0fd a23d 5d84 c93e
000000d0: df36 52bf 9524 97bf 5ce8 cdbf 0435 83bd
000000e0: b08e 92bf fb12 a03d 0d0a ee3f a60e 82bf
000000f0: cc95 cabf 3209 b03e 2598 9abf d34e fdbf

convs.0.w_self.weight f4 [64, 64]
0.25715142 -0.044865377 0.030861102 0.11859632 0.04109259 0.18119565 0.09362429 0.23702008
0.112969704 -0.091966175 -0.06672107 0.21733873 -0.11330547 -0.031747773 0.1389811 0.023135813
0.039499234 -0.044947114 -0.007294192 0.12557408 -0.11912276 -0.044843588 0.05625642 -0.07491257
0.073557496 0.1632602 0.21036291 0.07110077 -0.029031316 -0.053875864 0.0060109873 0.13828848
-0.23884426 -0.21039483 0.13370132 0.0893958 -0.06426855 0.038480423 -0.058598056 0.10320654
-0.10337151 -0.047838345 0.093630254 0.18345606 0.16417821 -0.07691029 0.024085809 0.09408065
0.08226619 -0.24843425 0.12006065 -0.2454721 -0.024973277 0.07960676 0.24980214 0.16985403
-0.26059666 0.045568712 -0.10824548 -0.18444051 -0.07365141 -0.18580498 0.19707185 -0.29953077
0.10742439 0.12699106 0.106430344 0.039765853 0.19448301 0.018737579 0.0077904463 0.015005551
0.019978317 -0.15782145 0.21860774 0.07868561 0.082887925 0.051555764 0.0021872 0.13877755
-0.011161944 0.024902912 -0.0076177614 -0.13424727 -0.02367894 0.027140023 -0.026376175 -0.06679054
-0.06919034 0.092075095 -0.06089003 0.009616327 -0.09550162 0.026902642 -0.034138933 -0.014113385
-0.16555639 -0.045599114 0.11502586 0.16097961 0.19800664 0.1707348 0.100423776 -0.04551826
0.18388073 0.004311882 0.15631177 0.12093031 0.14541778 -0.21327393 0.022982484 0.1470269
0.16750972 -0.0058303396 0.15085319 -0.13932401 -0.045055117 0.11536516 0.10456277 0.17452937
0.07959905 0.028314197 -0.011515984 -0.04373544 0.14554825 0.036490954 -0.09900325 0.041599184
0.003828984 -0.16209246 0.026825082 0.18496917 -0.11513922 -0.0037696525 -0.11871721 0.039637055
0.26210397 0.1741735 -0.03855263 -0.116826445 -0.18987563 -0.034504864 0.38088295 -0.044564556
0.09454911 0.017874079 0.019036034 0.30028975 -0.15869173 -0.076068014 0.18884775 0.045984738
0.0085682105 -0.09736393 0.18477103 0.123810016 0.14566174 0.013095731 -0.011918163 0.07962517
-0.072606646 0.14248616 -0.06156009 -0.007612908 0.0137088215 -0.140918 0.09118594 0.24271725
0.1532586 0.11123852 -0.106712416 -0.005138509 -0.05278272 0.21284708 -0.37429926 -0.07605951
-0.14257935 0.19324024 -0.10301417 0.068634376 -0.011148954 0.036167968 0.049138658 -0.009076079
-0.204121 -0.0771132 0.2836946 -0.17264579 -0.07389979 0.07930747 0.05011112 -0.16772641
0.021143017 0.042253684 -0.040437024 -0.027790535 -0.027128039 0.15728237 -0.043795113 0.12318547
0.010017053 -0.07237451 0.08773785 -0.15170413 0.01586796 0.013669151 -0.09503727 -0.037141815
0.0036045343 0.08764941 -0.1124558 0.107989654 -0.006446111 -0.052175935 0.13093682 -0.1165128
-0.026612263 -0.056016237 0.007915393 -0.15061186 0.06396416 -0.06572879 -0.082074 -0.03666812
-0.08845146 -0.047001027 0.023902074 0.0024240178 0.028405877 -0.105363004 -0.06096664 0.05743016
-0.08148422 0.07407155 0.056491338 -0.035405874 0.05818018 -0.09019434 -0.088202976 -0.071046285
-0.08815296 -0.115772344 0.047429785 -0.013548573 -0.084616415 0.16577262 -0.05896919 0.057686154
-0.068320885 0.07719933 0.10980156 -0.14207515 -0.05140264 0.04049439 -0.001970441 -0.02304304
00000000: 5aa9 833e c2c4 37bd 6cd0 fc3c a1e2 f23d
00000010: b450 283d 5a8b 393e 17be bf3d 64b5 723e
00000020: a95c e73d c358 bcbd 0ea5 88bd 0b8e 5e3e
00000030: b30c e8bd f409 02bd 1051 0e3e 5187 bd3c
00000040: f3c9 213d 771a 38bd 1e04 efbb 7e96 003e
00000050: a2f6 f3bd e9ad 37bd 226d 663d c36b 99bd
00000060: 50a5 963d af2d 273e 6069 573e 489d 913d
00000070: 15d3 edbc f0ac 5cbd d1f7 c43b 7f9b 0d3e
00000080: 9793 74be be71 57be 00e9 083e 2515 b73d
00000090: 3b9f 83bd a69d 1d3d 8404 70bd f35d d33d
000000a0: 71b4 d3bd 24f2 43bd 38c1 bf3d e8db 3b3e
000000b0: 551e 283e 2483 9dbd 9a4f c53c 5bad c03d
000000c0: 2d7b a83d 8c65 7ebe 5ce2 f53d 0a5d 7bbe
000000d0: c294 ccbc de08 a33d 22cc 7f3e 37ee 2d3e
000000e0: ed6c 85be 42a6 3a3d ceaf ddbd f9dd 3cbe
000000f0: 8dd6 96bd a943 3ebe 34cd 493e 195c 99be
00000100: 5201 dc3d f209 023e 27f8 d93d 85e1 223d
00000110: 8e26 473e 8d7f 993c 0047 ff3b d8d9 753c
00000120: 91a9 a33c f29b 21be b5da 5f3e ec25 a13d
00000130: 25c1 a93d 232c 533d 2057 0f3b b41b 0e3e
00000140: 96e0 36bc 3101 cc3c 6a9e f9bb 1e78 09be
00000150: 56fa c1bc c154 de3c d912 d8bc 7bc9 88bd
00000160: aab3 8dbd de91 bc3d d367 79bd cc8d 1d3c
00000170: 5a96 c3bd ee62 dc3c 44d5 0bbd d43b 67bc
00000180: 9d87 29be 23c6 3abd ae92 eb3d d7d7 243e
00000190: 41c2 4a3e 1ad5 2e3e fbaa cd3d 5b71 3abd
000001a0: 3b4b 3c3e b04a 8d3b 3110 203e 4faa f73d
000001b0: 66e8 143e 7b64 5abe c345 bc3c 388e 163e
000001c0: ab87 2b3e 6f0c bfbb 4279 1a3e f4aa 0ebe
000001d0: b78b 38bd 9244 ec3d 0125 d63d d4b7 323e
000001e0: d404 a33d 2df3 e73c 8aad 3cbc ef23 33bd
000001f0: 9a0a 153e 8a77 153d 37c2 cabd e863 2a3d
00000200: b1ef 7a3b 91fb 25be 46c0 db3c 8f68 3d3e
00000210: 1dce ebbd 460c 77bb 0222 f3bd 775a 223d
00000220: 7e32 863e 8a5a 323e 5de9 1dbd b442 efbd
00000230: c26e 42be f954 0dbd 1703 c33e 5389 36bd
00000240: f7a2 c13d a96c 923c 75f1 9b3c 94bf 993e
00000250: 1680 22be 8cc9 9bbd 4e61 413e 7e5a 3c3d
00000260: ae61 0c3c bd66 c7bd 9e34 3d3e 1b90 fd3d
00000270: 5a28 153e 7a8f 563c 6644 43bc 8512 a33d
00000280: cbb2 94bd e4e7 113e 6f26 7cbd b375 f9bb
00000290: f79a 603c cf4c 10be b2bf ba3d df8a 783e
000002a0: d3ef 1c3e 05d1 e33d 0a8c dabd f060 a8bb
000002b0: b232 58bd 96f4 593e 27a4 bfbe 17c5 9bbd
000002c0: 5200 12be c5e0 453e 18f9 d2bd 2e90 8c3d
000002d0: 1aaa 36bc dd24 143d 9e45 493d d6b3 14bc
000002e0: 1805 51be 87ed 9dbd 6b40 913e 0fca 30be
000002f0: c658 97bd f46b a23d 5141 4d3d 79c0 2bbe
00000300: 1f34 ad3c 3312 2d3d 4ba1 25bd faa8 e3bc
00000310: 9f3b debc a10e 213e 8162 33bd aa48 fc3d
00000320: 911e 243c 1639 94bd e7af b33d 5458 1bbe
00000330: 86fd 813c 93f4 5f3c e6a2 c2bd 0422 18bd
00000340: 0d3a 6c3b 8981 b33d 3a4f e6bd ae29 dd3d
00000350: e639 d3bb 6fb6 55bd 4d14 063e 439e eebd
00000360: f601 dabc 4871 65bd 91af 013c ff39 1abe
00000370: a4ff 823d d19c 86bd 6a16 a8bd 5031 16bd
00000380: 0a26 b5bd 2684 40bd 48ce c33c 45dc 1e3b
00000390: 71b3 e83c 8fc8 d7bd 28b8 79bd e33b 6b3d
000003a0: 33e1 a6bd d3b2 973d 7663 673d c005 11bd
000003b0: 574e 6e3d cfb7 b8bd c3a3 b4bd b780 91bd
000003c0: 8a89 b4bd 0d1a edbd bc45 423d d5fa 5dbc
000003d0: 5f4b adbd 4cc0 293e ad89 71bd 5148 6c3d
000003e0: d2eb 8bbd af1a 9e3d a4df e03d 267c 11be
000003f0: 938b 52bd 72dd 253d 8422 01bb c2c4 bcbc

convs.0.w_self.bias f4 [64]
-0.027018674 -0.0036489884 -0.052691 0.013311228 0.05233147 0.033421356 0.05535501 -0.20485297
-0.054054342 0.11421477 -0.019695567 -0.1392445 -0.114550985 -0.0630766 0.1006938 0.017282344
-0.11482603 0.033161808 -0.0047672098 -0.16342917 -0.19738337 -0.01056679 0.05834135 -0.2015646
-0.09874667 -0.07887363 -0.06719949 -0.083462715 -0.002621003 -0.1588294 0.06119341 -0.02150434
-0.0142275635 0.049963523 -0.003225399 -0.09246827 0.038299162 -0.1308325 -0.07971932 -0.11105349
0.037138846 0.108234875 0.056415003 -0.16153342 -0.08707315 -0.05026562 -0.051465083 -0.06336299
-0.10085803 -0.0020718602 -0.08445076 0.038686503 -0.1578791 -0.034927636 0.14052545 -0.08499511
0.06642272 -0.01770439 0.05681941 -0.009461834 -0.009254326 0.14255637 -0.14484984 -0.008618143
00000000: 4456 ddbc de23 6fbb 85d2 57bd 5617 5a3c
00000010: 8659 563d d5e4 083d efbb 623d fac4 51be
00000020: 1668 5dbd 6fe9 e93d 9958 a1bc 1c96 0ebe
00000030: b599 eabd 4e2e 81bd 8d38 ce3d b493 8d3c
00000040: e929 ebbd add4 073d 4136 9cbb fa59 27be
00000050: de1e 4abe 5420 2dbc 57f7 6e3d f366 4ebe
00000060: b23b cabd 7f88 a1bd e39f 89bd 80ee aabd
00000070: 22c5 2bbb 2da4 22be f1a5 7a3d df29 b0bc
00000080: ba1a 69bc 8da6 4c3d 3761 53bb 0160 bdbd
00000090: 95df 1c3d f4f8 05be e243 a3bd 0370 e3bd
000000a0: e71e 183d 3faa dd3d 6b13 673d 0469 25be
000000b0: 6853 b2bd 53e3 4dbd 0dcd 52bd 75c4 81bd
000000c0: a88e cebd 0cc8 07bb 85f4 acbd bd75 1e3d
000000d0: 0fab 21be 4810 0fbd e7e5 0f3e eb11 aebd
000000e0: a308 883d cc08 91bc 78bb 683d cf05 1bbc
000000f0: 759f 17bc 4cfa 113e 8453 14be 1d33 0dbc

convs.0.w_nei.weight f4 [64, 64]
0.25897408 -0.29054224 -0.24139223 0.15277646 -0.2974359 -0.14664158 -0.20170198 -0.13399582
0.3543851 0.17581305 0.037747357 0.19197115 -0.274509 -0.205146 0.45097786 -0.058438264
0.360367 0.15609024 0.2322134 0.42842436 -0.21435556 -0.26329643 0.10565186 0.30042017
-0.13354298 -0.212042 0.057522923 0.16937375 0.5790165 0.04953836 0.009570333 0.09140951
-0.30191463 0.031197056 -0.43484887 -0.07829553 -0.38162997 -0.025765032 -0.0036495076 0.34324396
0.03179702 0.13551953 0.052034356 0.2709091 -0.11644525 0.42040288 -0.64801383 -0.4573084
-0.29796457 0.13550748 -0.024391545 0.05984978 0.011759053 -0.08506091 -0.0946407 -0.13476959
-0.20258087 0.01470166 0.39546534 -0.3249317 -0.44380423 0.0589082 -0.08104666 -0.25029662
0.189238 -0.18611957 0.0571645 0.100728 0.032910857 0.22856109 -0.15246183 0.22410184
-0.069272585 -0.20233364 0.061790086 0.066409566 -0.19145297 -0.017926518 -0.09590113 -0.040565025
-0.07126818 -0.18652783 -0.21713626 -0.100156285 -0.07381105 -0.09132949 0.15495537 -0.22450306
-0.16851163 0.13851048 0.19405793 0.009061345 0.09099873 -0.12366449 -0.03036807 0.052236684
-0.11004959 -0.1535226 0.21554072 0.037463132 0.030697543 0.009456184 -0.2190859 0.008569127
0.19730014 -0.086845085 -0.0059771203 0.1703971 0.18330348 -0.057538684 -0.1233627 0.009598052
0.09350393 -0.110924624 0.13376565 -0.15412886 -0.13534755 0.039880227 0.046682768 0.17148378
-0.03554815 0.032130342 0.14694466 -0.009836517 -0.10443579 -0.13995618 0.020191379 -0.01653639
0.032862652 -0.043538492 -0.11424682 0.3719881 -0.6651247 -0.032367095 -0.029214313 -0.09025208
0.24213617 0.25498906 0.18444802 0.55318904 -0.23428637 -0.09857435 0.6724453 0.0017048866
0.10912681 0.035988003 -0.09832019 0.10467674 -0.36111748 -0.4778982 0.25041157 0.2614093
-0.098203205 0.060252704 0.3222057 0.11865567 0.10081587 0.089868896 -0.288883 0.34186772
-0.28565904 -0.35962057 0.16618986 0.13245931 0.04361062 0.18547598 0.10829956 0.15457861
0.35515428 0.25264534 0.44323784 0.14520596 -0.2537984 0.2098176 -0.16905262 -0.690715
-0.17532465 0.29792312 0.0919321 -0.0487543 -0.36860982 0.035483565 -0.1823587 0.04642969
-0.23677917 0.045712665 0.38080418 -0.12139869 -0.17547007 -0.20888971 0.008687684 -0.34107783
0.056131456 -0.05265606 -0.016264353 0.12707883 -0.12318647 0.039491683 -0.10356766 0.008288888
0.11558118 0.08675124 -0.07977652 0.08843927 -0.18542047 0.08576517 0.27918676 -0.07931788
-0.024597365 0.09349124 -0.06835319 0.10812287 0.03212037 -0.101478875 -0.08677174 0.07937819
-0.081677146 0.11675145 -0.07709739 -0.013462879 0.1329552 0.06444452 0.028361691 0.05407294
0.032561027 0.03659851 0.048889704 -0.10382174 -0.042918444 0.026887173 0.1002535 0.1332846
0.0689863 0.019089034 0.075715415 0.06854006 -0.057203367 -0.0031283973 -0.09748922 -0.038416505
0.004932603 0.10376943 0.073316745 -0.04080089 0.06294736 -0.07068927 0.01584184 -0.08948065
-0.09282354 -0.05731296 0.20618294 -0.060964342 -0.10312975 0.03426059 -0.08069451 0.078593396
00000000: 4098 843e f4c1 94be 862f 77be 6f71 1c3e
00000010: 8549 98be 3629 16be f78a 4ebe 3336 09be
00000020: f771 b53e 5608 343e f99c 1a3d 1694 443e
00000030: 728c 8cbe cb11 52be 92e6 e63e f65c 6fbd
00000040: 0682 b83e 1fd6 1f3e 59c9 6d3e 705a db3e
00000050: 0680 5bbe cace 86be 0160 d83d acd0 993e
00000060: 7ebf 08be 8a21 59be 289d 6b3d 5070 2d3e
00000070: 6d3a 143f bce8 4a3d e3cc 1c3c e934 bb3d
00000080: 8e94 9abe f890 ff3c 83a4 debe 6859 a0bd
00000090: 0165 c3be 3011 d3bc 942c 6fbb acbd af3e
000000a0: 983d 023d a2c5 0a3e fa21 553d 99b4 8a3e
000000b0: d97a eebd 0c3f d73e 3ce4 25bf 5424 eabe
000000c0: d08e 98be 79c2 0a3e c7d0 c7bc 0b25 753d
000000d0: 0ba9 403c 6a34 aebd fcd2 c1bd 0a01 0abe
000000e0: 5c71 4fbe 3bdf 703c 6f7a ca3e 735d a6be
000000f0: 4f3a e3be ba49 713d cbfb a5bd e126 80be
00000100: 9bc7 413e 2196 3ebe 5325 6a3d 7b4a ce3d
00000110: 89cd 063d eb0b 6a3e f41e 1cbe f47a 653e
00000120: c9de 8dbd 8d30 4fbe 9a17 7d3d bd01 883d
00000130: 3f0c 44be a2da 92bc d067 c4bd 8327 26bd
00000140: 0df5 91bd 2701 3fbe f858 5ebe bd1e cdbd
00000150: 3f2a 97bd f50a bbbd 9fac 1e3e 21e4 65be
00000160: 508e 2cbe b1d5 0d3e 1fb7 463e 0976 143c
00000170: 8b5d ba3d cf43 fdbd 75c6 f8bc 22f6 553d
00000180: ae61 e1bd 0735 1dbe b5b6 5c3e f172 193d
00000190: 6a79 fb3c 1cee 1a3c 0e58 60be 8665 0c3c
000001a0: 0c09 4a3e d6db b1bd b8db c3bb 947c 2e3e
000001b0: e8b3 3b3e afad 6bbd 95a5 fcbd 2641 1d3c
000001c0: fd7e bf3d 732c e3bd ddf9 083e f5d3 1dbe
000001d0: 8c98 0abe 7359 233d 6e36 3f3d 7299 2f3e
000001e0: f09a 11bd 1b9b 033d a978 163e 5829 21bc
000001f0: 6ee2 d5bd ac50 0fbe 6468 a53c 5377 87bc
00000200: fd9a 063d 6b55 32bd 3dfa e9bd 3975 be3e
00000210: 9d45 2abf 5c93 04bd db52 efbc 15d6 b8bd
00000220: 8bf2 773e ed8d 823e f1df 3c3e cc9d 0d3f
00000230: c4e8 6fbe 59e1 c9bd 6025 2c3f 8076 df3a
00000240: e17d df3d 2868 133d 195c c9bd c260 d63d
00000250: 64e4 b8be 13af f4be f235 803e 71d7 853e
00000260: c31e c9bd 8acb 763d 25f8 a43e be01 f33d
00000270: 8d78 ce3d 2f0d b83d 79e8 93be 4909 af3e
00000280: e741 92be 3020 b8be ad2d 2a3e 6aa3 073e
00000290: 0da1 323d 6aed 3d3e 29cc dd3d db49 1e3e
000002a0: c8d6 b53e bb5a 813e 12f0 e23e dfb0 143e
000002b0: ddf1 81be 6dda 563e 211c 2dbe b3d2 30bf
000002c0: 4e88 33be 6189 983e e646 bc3d 97b2 47bd
000002d0: 6dba bcbe 3757 113d 3dbc 3abe 0f2d 3e3d
000002e0: 3d76 72be 343d 3b3d c4f8 c23e e09f f8bd
000002f0: 6dae 33be 2fe7 55be ca56 0e3c c1a1 aebe
00000300: 19ea 653d e1ad 57bd d23c 85bc f420 023e
00000310: 3049 fcbd 08c2 213d 481b d4bd 1ece 073c
00000320: d3b5 ec3d a2aa b13d df61 a3bd a61f b53d
00000330: ddde 3dbe a6a5 af3d 91f1 8e3e 6a71 a2bd
00000340: 6a80 c9bc 5678 bf3d c2fc 8bbd 866f dd3d
00000350: a690 033d 28d4 cfbd 62b5 b1bd 0891 a23d
00000360: 5946 a7bd 621b ef3d 3de5 9dbd 6893 5cbc
00000370: 6825 083e 7dfb 833d c756 e83c 967b 5d3d
00000380: b65e 053d 52e8 153d 9240 483d 7ea0 d4bd
00000390: 40cb 2fbd 7d42 dc3c b551 cd3d c27b 083e
000003a0: b048 8d3d 9b60 9c3c af10 9b3d bb5e 8c3d
000003b0: 144e 6abd cc05 4dbb 6ea8 c7bd a05a 1dbd
000003c0: aca1 a13b 1185 d43d 1727 963d d61e 27bd
000003d0: 8cea 803d 89c5 90bd bfc6 813c a241 b7bd
000003e0: 451a bebd ffc0 6abd 9f21 533e bfb5 79bd
000003f0: b135 d3bd d554 0c3d 2a43 a5bd 93f5 a03d

convs.0.w_edge.weight f4 [64, 64]
-0.04049899 -0.15766506 -0.13055173 0.062546685 -0.06851438 -0.084315166 0.14070885 -0.01438557
0.033950817 0.021870956 0.055266503 0.026784096 -0.00090511795 0.21288858 -0.23536806 0.16150628
-0.055325996 0.10750428 -0.08214153 -0.110324435 0.1980559 0.015606545 0.06959697 0.03981285
0.09650621 0.2091413 -0.008645842 0.1576885 0.0033101968 0.01264176 -0.18918565 0.19041996
0.11882391 -0.1956645 0.036895633 -0.025672711 -0.054872468 -0.036890868 -0.0037195291 0.09514734
0.15899375 0.10416621 0.09566208 0.10308267 -0.08643713 0.035821144 0.20185792 -0.027248677
-0.24412295 0.07291559 0.041326385 -0.0396759 -0.004862406 -0.077571794 -0.022722663 -0.13291295
-0.08095372 0.13507426 -0.04146228 0.1739129 0.04868069 -0.0073600886 0.14268292 0.037241735
-0.145108 0.0003628055 -0.13661203 0.004376206 -0.016990382 -0.074198514 -0.19936045 0.14746585
0.0549472 0.21785909 0.009093994 -0.15587376 -0.16674869 0.17008619 -0.10354898 0.005144148
-0.017086789 0.058219314 -0.16515146 -0.04522657 0.16420439 -0.17439497 0.12608655 -0.00032928554
0.16132668 0.086709194 0.08219528 0.13751857 0.21282032 -0.019536365 -0.0893429 0.043518472
-0.06337786 -0.18312438 0.21343398 0.053126 -0.18591188 -0.03869007 0.06482555 0.1387793
0.07008225 0.0066971225 -0.06976987 0.11942461 -0.048237585 0.016044527 0.055700976 -0.0516476
0.14195032 0.06203577 -0.06003534 0.023705397 0.14261627 0.11821788 0.046409205 0.11215019
-0.019725773 -0.03695659 -0.04285492 -0.05484737 -0.038613677 -0.014714049 0.13374421 -0.15946646
-0.06443834 -0.08088317 0.005550591 0.024105586 0.051958323 -0.1045837 0.01798129 0.0064183357
0.0013296905 -0.07078909 -0.08078038 0.04629738 0.035013355 0.0575095 -0.15142442 -0.07411941
0.08652654 -0.033991244 -0.068060726 0.02532143 0.0142710265 -0.11676801 -0.05639889 0.07733678
-0.026204465 0.028018843 -0.027443938 -0.11441864 0.05106918 0.038586486 -0.06333061 -0.078475945
-0.09713862 -0.014662568 -0.055303622 -0.12650812 -0.14289448 0.061517816 0.14225851 -0.05612808
0.0056859152 0.06249161 -0.1911103 -0.0026910258 -0.03144852 0.12687945 0.011986114 0.06825666
-0.18805456 0.09223646 -0.16158146 0.12763602 -0.10812411 -0.035644375 -0.18052778 -0.012365272
0.028885452 0.12672143 0.032155443 0.015916016 0.07684451 -0.00695485 -0.10841696 -0.12590092
0.08000715 -0.11868981 0.0412542 -0.12112177 -0.015002476 0.09982869 -0.076367915 0.14113578
0.10431303 -0.011871827 0.05350523 0.11372052 -0.049807888 -0.09414508 0.047008205 0.028845657
0.026873576 0.10172467 -0.009060251 -0.098099224 0.03124735 -0.11169543 -0.023677297 0.0072742025
-0.10329151 0.06613355 -0.027552992 0.0351135 -0.04579299 -0.0057465453 -0.08908635 0.08730686
0.08801257 -0.12134448 -0.028621964 -0.13889405 0.09610955 0.047394183 -0.05635677 0.040223505
0.02612832 0.1190311 -0.035287667 0.109122545 -0.091665834 -0.04429536 0.05852177 -0.115046725
-0.05345172 0.04467817 -0.047980797 0.0459211 0.10163103 -0.06125423 -0.05186974 0.036200456
0.031724222 0.08513922 -0.1061906 -0.05146181 -0.003968585 -0.024652312 0.13153826 0.0154054845
00000000: 45e2 25bd f372 21be 5aaf 05be 7a18 803d
00000010: 4451 8cbd 6ead acbd fb15 103e 74b1 6bbc
00000020: 0310 0b3d b82a b33c 215f 623d 526a db3c
00000030: 7045 6dba 77ff 593e 5304 71be e761 253e
00000040: 839d 62bd 342b dc3d d239 a8bd c7f1 e1bd
00000050: 2acf 4a3e 98b2 7f3c db88 8e3d cd12 233d
00000060: 0ca5 c53d 2329 563e 4aa7 0dbc 1879 213e
00000070: e3ef 583b 621f 4f3c e2b9 41be 73fd 423e
00000080: f359 f33d 465c 48be e01f 173d 944f d2bc
00000090: f4c1 60bd e11a 17bd 58c3 73bb 9cdc c23d
000000a0: 42cf 223e 1855 d53d 7bea c33d 021d d33d
000000b0: f305 b1bd 31b9 123d d8b3 4e3e 9e38 dfbc
000000c0: 5efb 79be c554 953d db45 293d 3283 22bd
000000d0: d154 9fbb f6dd 9ebd e124 babc 551a 08be
000000e0: 10cb a5bd e850 0a3e 5ad4 29bd 3916 323e
000000f0: 6765 473d e62c f1bb 791b 123e ca8a 183d
00000100: 3197 14be ee36 be39 06e4 0bbe 4766 8f3b
00000110: 6a2f 8bbc 64f5 97bd 2525 4cbe 4a01 173e
00000120: 5110 613d 7416 5f3e fafe 143c 5f9d 1fbe
00000130: 2bc0 2abe 132b 2e3e 7d11 d4bd 3e90 a83b
00000140: 98f9 8bbc 6077 6e3d 771d 29be 7f3f 39bd
00000150: 3225 283e 9894 32be d51c 013e f5a3 acb9
00000160: d232 253e 9794 b13d 0056 a83d abd1 0c3e
00000170: 92ed 593e ba0a a0bc 69f9 b6bd 6d40 323d
00000180: 40cc 81bd f584 3bbe 708e 5a3e a69a 593d
00000190: af5f 3ebe 7b79 1ebd 42c3 843d 291c 0e3e
000001a0: 4887 8f3d 8973 db3b 81e3 8ebd e494 f43d
000001b0: c694 45bd d06f 833c b526 643d 6f8c 53bd
000001c0: 6d5b 113e 3819 7e3d 9ee7 75bd d231 c23c
000001d0: 000a 123e 371c f23d 9417 3e3d 00af e53d
000001e0: f297 a1bc cb5f 17bd a488 2fbd a3a7 60bd
000001f0: 6029 1ebd 3213 71bc 3ef4 083e 2d4b 23be
00000200: 40f8 83bd 13a6 a5bd bbe1 b53b 1479 c53c
00000210: 40d2 543d fb2f d6bd 804d 933c e750 d23b
00000220: 0249 ae3a dff9 90bd 2f70 a5bd 52a2 3d3d
00000230: 2a6a 0f3d 158f 6b3d 010f 1bbe ebcb 97bd
00000240: d434 b13d 673a 0bbd 6c63 8bbd e36e cf3c
00000250: 06d1 693c 1124 efbd 8602 67bd bf62 9e3d
00000260: bfaa d6bc c687 e53c 1cd2 e0bc 5254 eabd
00000270: eb2d 513d dd0c 1e3d 7bb3 81bd ffb7 a0bd
00000280: 9df0 c6bd 453b 70bc 0d86 62bd 588b 01be
00000290: ee52 12be 1bfa 7b3d 37ac 113e 8fe6 65bd
000002a0: ea50 ba3b 34f7 7f3d 6bb2 43be ec5b 30bb
000002b0: 2ad0 00bd b0ec 013e 6861 443c 26ca 8b3d
000002c0: 6091 40be 78e6 bc3d 9c75 25be 04b3 023e
000002d0: 2c70 ddbd d6ff 11bd 46dc 38be b697 4abc
000002e0: 2fa1 ec3c 43c3 013e 6db5 033d 4e62 823c
000002f0: a860 9d3d 83e5 e3bb b609 debd 2cec 00be
00000300: cada a33d a513 f3bd 2afa 283d b10e f8bd
00000310: f2cc 75bc fc72 cc3d c866 9cbd e685 103e
00000320: 12a2 d53d 0d82 42bc 4d28 5b3d 4ee6 e83d
00000330: 5b03 4cbd 23cf c0bd ad8b 403d ba4d ec3c
00000340: f925 dc3c 0655 d03d 7271 14bc 3fe8 c8bd
00000350: 71fa ff3c 93c0 e4bd e4f6 c1bc 6f5c ee3b
00000360: 808a d3bd 0771 873d d0b6 e1bc 2cd3 0f3d
00000370: 6e91 3bbd 844d bcbb e772 b6bd f0cd b23d
00000380: ef3f b43d 7483 f8bd 9c78 eabc 3e3a 0ebe
00000390: 15d5 c43d 6720 423d 5bd6 66bd 67c1 243d
000003a0: 0f0b d63c 94c6 f33d cd89 10bd a47b df3d
000003b0: 4cbb bbbd 0d6f 35bd 86b4 6f3d 9e9d ebbd
000003c0: 31f0 5abd 7500 373d 8387 44bd c317 3c3d
000003d0: ee23 d03d b7e5 7abd 5d75 54bd ee46 143d
000003e0: 42f1 013d 795d ae3d 757a d9bd 9ec9 52bd
000003f0: e70a 82bb a5f3 c9bc f7b1 063e 4967 7c3c

convs.1.w_self.weight f4 [64, 64]
-0.02622866 0.02446157 0.10573072 0.10681089 -0.27167606 0.03588331 0.15008909 -0.102610074
-0.008494809 -0.31664756 0.23267451 -0.09988288 0.4555122 0.07220593 -0.07884018 0.03431392
0.0441592 0.09171711 -0.29974508 -0.022791263 -0.20842712 -0.035640553 0.08365098 0.16651493
0.24103753 -0.045714956 -0.027745163 0.04552016 0.03903594 0.014978597 -0.11230106 0.08833747
-0.103765726 -0.095358856 0.122835755 0.07449888 -0.1883064 -0.058354367 0.082790524 -0.11165492
-0.38621044 0.06599012 -0.013901853 0.049216535 0.02032116 -0.26716584 0.089181826 -0.013029037
-0.22189677 -0.245354 0.053557593 0.024404539 0.06799619 -0.14690374 0.14526442 0.11093882
0.12363449 -0.019222684 0.3428884 0.1565729 0.4268141 0.17858657 0.5516584 -0.080975994
0.0012892577 -0.07080616 0.2115804 0.0025051138 0.012703024 -0.10694505 0.0053475215 0.0057358276
0.07791541 0.018022202 0.032621976 -0.0006036373 0.0016909747 0.01526388 -0.027849097 -0.06668028
0.025996331 -0.11242099 -0.00665067 -0.15066157 0.0117181055 -0.20036392 -0.041889366 0.05021536
-0.071310565 -0.048603304 -0.031348523 -0.14522618 0.06919458 -0.043352112 -0.11258436 -0.071249455
0.029684305 -0.12556079 0.08322938 0.13618533 0.014620553 0.02117564 0.084131576 0.034838255
-0.10793028 0.016468672 0.04317851 0.010316404 0.045152005 0.04660858 -0.009297191 0.12972082
-0.11691988 -0.10378852 0.010978672 0.13982588 0.020935709 -0.04489029 -0.046064533 -0.16973945
-0.119525045 0.015183458 -0.07710911 0.008128219 -0.14664711 0.04387566 -0.19832365 0.049598068
-0.45371926 -0.11479881 -0.06749116 -0.21072824 0.07458 -0.46226388 -0.19450176 0.100634955
-0.09655462 -0.048254482 0.25044617 -0.24000625 -0.046101905 -0.010016629 -0.101885036 -0.1307847
-0.15009804 -0.20012443 0.12017579 -0.12911648 -0.048773848 -0.12556481 -0.14990525 -0.2325041
0.11605169 -0.14817196 -0.2737882 -0.0076812287 -0.044706434 -0.026601888 -0.027231354 -0.057663962
-0.020417027 0.16482517 -0.09669131 -0.22983518 -0.061822835 0.055507977 -0.0012456381 -0.4267251
-0.13896166 -0.06309397 -0.1377795 -0.08381522 0.046244226 -0.022420008 0.09810872 0.05196987
0.08013721 -0.351225 -0.1153476 0.049505204 -0.10213929 -0.06351559 0.03724076 -0.6177795
-0.080452755 -0.123704076 -0.12602974 -0.07719122 -0.537861 -0.1489996 -0.06515359 0.014602084
-0.01201756 0.031057462 -0.13273086 0.08521458 -0.18393023 -0.024011116 -0.14589839 0.09582238
-0.09396991 -0.20301537 -0.11607942 -0.035242125 -0.29329467 -0.029696101 -0.10565594 -0.112341
0.012484781 0.03798561 -0.16600867 -0.15976663 0.07741244 -0.28483367 0.109334365 0.053630117
-0.23445775 -0.19258791 -0.03396354 -0.045708336 0.0569961 0.083362296 0.064869106 0.023712257
0.020033412 0.03635102 -0.20117003 -0.10420797 -0.004191663 0.08635177 0.038430195 0.1481478
-0.12475252 -0.08418258 -0.043022256 -0.111986384 0.0008113468 -0.07933765 0.039854202 -0.033716228
-0.08327599 -0.034276675 0.07641791 -0.08297259 -0.01027412 -0.13066173 0.061206684 -0.09792748
-0.008616057 0.06244626 -0.19492982 -0.08465573 -0.0787694 0.14222574 0.047937173 -0.036969878
00000000: 7ddd d6bc a163 c83c 5989 d83d abbf da3d
00000010: 2019 8bbe 61fa 123d f4b0 193e 3b25 d2bd
00000020: d02d 0bbc a11f a2be 3a42 6e3e 658f ccbd
00000030: e538 e93e b4e0 933d f676 a1bd c18c 0c3d
00000040: 47e0 343d 2ed6 bb3d 3078 99be beb4 babc
00000050: eb6d 55be d4fb 11bd 3451 ab3d e482 2a3e
00000060: 8bd2 763e 9b3f 3bbd d349 e3bc 5973 3a3d
00000070: 26e4 1f3d ca68 753c 19fe e5bd 47ea b43d
00000080: 2083 d4bd 814b c3bd 5091 fb3d de92 983d
00000090: 65d3 40be fd04 6fbd 148e a93d 56ab e4bd
000000a0: 60bd c5be d425 873d 99c4 63bc 4797 493d
000000b0: 9078 a63c f6c9 88be f6a4 b63d be77 55bc
000000c0: e838 63be 143e 7bbe 355f 5b3d 07ec c73c
000000d0: 9641 8b3d ef6d 16be 32c0 143e e433 e33d
000000e0: 1434 fd3d e478 9dbc 128f af3e a554 203e
000000f0: 6187 da3e 66df 363e 7c39 0d3f bed6 a5bd
00000100: 4ffc a83a d202 91bd 88a8 583e d62c 243b
00000110: 5820 503c 0206 dbbd 433a af3b 9cf3 bb3b
00000120: 1d92 9f3d 4ca3 933c 9f9e 053d 6a3d 1eba
00000130: b2a3 dd3a 5a15 7a3c ca23 e4bc ac8f 88bd
00000140: 42f6 d43c fa3c e6bd dded d9bb 0747 1abe
00000150: 4cfd 3f3c 332c 4dbe 2f94 2bbd 9fae 4d3d
00000160: 460b 92bd 4214 47bd 4f67 00bd 2cb6 14be
00000170: e3b5 8d3d fc91 31bd a192 e6bd 3ceb 91bd
00000180: 802c f33c 0293 00be 2a74 aa3d 2b74 0b3e
00000190: 0b8b 6f3c 8978 ad3c 2d4d ac3d 8fb2 0e3d
000001a0: 8d0a ddbd 4fe9 863c f3db 303d 2206 293c
000001b0: 4ff1 383d a3e8 3e3d 3f53 18bc 89d5 043e
000001c0: b173 efbd 138f d4bd e3df 333c 842e 0f3e
000001d0: 5d81 ab3c e1de 37bd 2aae 3cbd 2ed0 2dbe
000001e0: 8cc9 f4bd 0ac4 783c 62eb 9dbd 392c 053c
000001f0: a92a 16be f7b6 333d 5b15 4bbe 5827 4b3d
00000200: e44d e8be a31b ebbd ce38 8abd 25c9 57be
00000210: 66bd 983d daad ecbe 782b 47be b319 ce3d
00000220: 6ebe c5bd 7ea6 45bd 7b3a 803e 33c4 75be
00000230: 5ad5 3cbd c91c 24bc 1aa9 d0bd 6dec 05be
00000240: 4db3 19be 6bed 4cbe b91e f63d 1c37 04be
00000250: 16c7 47bd 1094 00be c380 19be 8e15 6ebe
00000260: 82ac ed3d 64ba 17be f82d 8cbe d1b2 fbbb
00000270: 181e 37bd 34ec d9bc 4a14 dfbc 0c31 6cbd
00000280: 9c41 a7bc eec7 283e 1806 c6bd ea59 6bbe
00000290: f139 7dbd 555c 633d ae44 a3ba b67b dabe
000002a0: f74b 0ebe 6937 81bd 1216 0dbe 50a7 abbd
000002b0: 966a 3d3d 2aaa b7bc 39ed c83d 5cde 543d
000002c0: fa1e a43d c3d3 b3be 5d3b ecbd f8c5 4a3d
000002d0: 672e d1bd 7614 82bd c489 183d cc26 1ebf
000002e0: 6ac4 a4bd 9058 fdbd f10d 01be 6e16 9ebd
000002f0: 42b1 09bf 5a93 18be 3f6f 85bd 943d 6f3c
00000300: 4de5 44bc 386c fe3c 99ea 07be fb84 ae3d
00000310: 3558 3cbe f6b2 c4bc 6366 15be 863e c43d
00000320: 4c73 c0bd 43e3 4fbe 0cbb edbd 0c5a 10bd
00000330: b82a 96be 3d45 f3bc 2462 d8bd 0a13 e6bd
00000340: f88c 4c3c cd96 1b3d 2dfe 29be dd99 23be
00000350: 6a8a 9e3d b8d5 91be b2ea df3d 41ab 5b3d
00000360: b115 70be c435 45be 5a1d 0bbd aa38 3bbd
00000370: be74 693d dab9 aa3d 18da 843d 3540 c23c
00000380: 1c1d a43c cfe4 143d 84ff 4dbe fd6a d5bd
00000390: 385a 89bb 32d9 b03d fb68 1d3d 0fb4 173e
000003a0: 407e ffbd eb67 acbd 1b38 30bd 1e59 e5bd
000003b0: 90b0 543a c77b a2bd 293e 233d 071a 0abd
000003c0: 9a8c aabd b365 0cbd fe80 9c3d 89ed a9bd
000003d0: c854 28bc 30cc 05be dcb3 7a3d 348e c8bd
000003e0: 5d2a 0dbc a6c7 7f3d af9b 47be fc5f adbd
000003f0: da51 a1bd a0a3 113e c559 443d ba6d 17bd

convs.1.w_self.bias f4 [64]
-0.14674 0.033700727 -0.0076308115 -0.13438435 0.0004179888 0.0293403 0.11365138 -0.14796449
-0.10286941 0.016403597 -0.037943754 -0.035253253 -0.060584117 0.021991199 0.10468118 -0.09343107
0.057260726 0.12182036 -0.026396481 -0.030912878 0.055846248 0.033473283 -0.15743741 -0.0015492911
-0.20640528 -0.03170984 -0.007915493 0.011332429 -0.037854042 -0.022865275 0.029634304 0.15300222
-0.095141284 -0.14330776 -0.12084624 -0.078605995 -0.081148006 0.16419846 0.002977324 -0.014876157
-0.10435021 0.13738905 -0.020506378 -0.04904545 0.11390469 -0.10330761 -0.08515525 -0.06849913
0.088023245 0.078921 0.06336467 -0.1288348 -0.074176356 -0.052117012 0.10151032 -0.1307072
0.13037427 -0.10236623 -0.158032 -0.064374976 -0.0046843216 0.1475703 0.029969119 -0.015448392
00000000: 0343 16be c609 0a3d e30b fabb 0d9c 09be
00000010: 8225 db39 125b f03c 0ec2 e83d 0184 17be
00000020: 32ad d2bd d660 863c e96a 1bbd b765 10bd
00000030: 0d27 78bd e326 b43c 1663 d63d ca58 bfbd
00000040: 398a 6a3d f47c f93d 6f3d d8bc 013d fdbc
00000050: 09bf 643d 481b 093d 4637 21be 9511 cbba
00000060: e85b 53be 2de2 01bd fcaf 01bc a7ab 393c
00000070: d70c 1bbd f54f bbbc a4c3 f23c 9dac 1c3e
00000080: 6fd9 c2bd 45bf 12be 3c7e f7bd 2efc a0bd
00000090: ed30 a6bd a423 283e 351f 433b 20bb 73bc
000000a0: 90b5 d5bd b7af 0c3e fefc a7bc e2e3 48bd
000000b0: dd46 e93d f192 d3bd e065 aebd 4649 8cbd
000000c0: 8845 b43d 55a1 a13d 56c5 813d 45ed 03be
000000d0: c6e9 97bd a678 55bd a5e4 cf3d 1cd8 05be
000000e0: d580 053e 63a5 d1bd 24d3 21be 07d7 83bd
000000f0: f07e 99bb ab1c 173e cc81 f53c 411b 7dbc

convs.1.w_nei.weight f4 [64, 64]
1.1952165 -0.4537547 0.47397602 -0.10427234 0.01538019 -0.016842974 -0.57621986 -0.30090174
0.12624003 0.026591197 -0.025280396 -0.091271326 -0.0013545053 -0.18709566 0.28387344 0.13307303
0.2852034 -0.34011686 -0.20659737 0.22770259 -0.21694446 -0.095435314 0.049182545 0.74547637
0.10935498 -0.39631516 0.6542934 0.21272655 0.64488435 -0.057693146 -0.009709101 0.37331516
-0.060902115 -0.016348924 0.07751024 0.13950473 -0.57139856 -0.09242033 -0.03321059 -0.53993726
0.03907969 -0.8611571 -0.6289416 0.6112065 0.055270214 0.22740531 -0.06766561 -0.00050699874
0.019709932 -0.086832374 0.4933836 -0.38646737 0.47266924 -0.6705671 -0.3845075 -0.2587149
0.17254846 -0.086131275 -0.7792539 0.3397352 -0.090698384 -0.821558 -0.39248985 0.049901046
0.06140798 0.01603916 -0.09573763 -0.14215814 -0.07145748 -0.07744391 -0.02615531 -0.04692018
-0.06037857 -0.05885235 0.0068811127 0.013794787 -0.028989652 -0.1363973 -0.15497798 0.05897958
0.024397645 -0.12398769 0.049831416 -0.039679386 0.111369975 0.026214922 -0.072367914 -0.04409756
0.12219709 -0.09773785 -0.06348677 -0.08692917 -0.1413374 0.12220775 -0.12709144 0.10462602
-0.011675503 0.0045463815 0.04780096 0.046837322 0.17204757 -0.10945163 0.103222325 -0.023193022
-0.20062011 -0.10901356 -0.041583173 0.04352912 -0.012657846 -0.03422535 0.04798025 0.05608308
0.040033124 -0.0853521 -0.040354263 0.036432594 -0.1518503 0.018728204 0.3159699 -0.028926307
-0.08626501 0.015045384 -0.05544326 -0.14491762 0.049810395 0.06458346 -0.01969473 0.07701946
-0.17198554 -0.13929594 0.3460578 -0.05069627 -0.005216886 -0.12793905 -0.008510551 -0.045454994
-0.04701072 0.106837906 0.3269204 0.03976698 -0.048006777 0.10023788 0.33476338 -0.07961274
0.014108246 -0.06770326 0.28835648 0.35590112 0.11680037 -0.09150698 -0.07801086 -0.12708777
0.35188997 0.052841764 -0.15419498 0.22084825 0.5211181 -0.10253131 -0.0923343 0.3135229
0.0051528215 -0.5131984 0.1065698 0.019365584 -0.106232636 0.09048549 0.09926444 -0.18752697
0.28858864 -0.1562653 0.13412511 0.10911251 0.028181039 0.32357696 -0.11487124 0.083001174
-0.17926194 0.18285942 0.3274433 -0.062580936 0.48894152 0.07774947 0.28531224 -0.026464619
0.2781418 -0.08046794 -0.45465374 0.35247716 -0.07324075 -0.2920996 -0.12431889 -0.0055666585
0.017869001 -0.056250136 0.10767689 -0.075891286 -0.34984145 -0.16439633 -0.07300217 0.07970074
-0.07234541 -0.15951999 -0.07334703 0.20236713 0.1620397 0.07771121 0.092122056 -0.17921896
-0.07882635 -0.16251945 0.19862477 -0.030954987 -0.08715213 0.0059344703 0.10264456 -0.11171539
0.0339306 -0.018227017 0.118515454 0.06509473 0.2950586 -0.05419656 0.13911298 -0.01858498
-0.017260097 -0.25439754 -0.18456891 -0.12211197 0.050578687 -0.09303052 -0.09911719 0.13261573
-0.22517213 0.042917505 0.06433975 0.039277032 -0.013567389 -0.10422692 -0.07729958 0.08997424
-0.18692093 -0.013119628 0.15285946 -0.05830266 0.027130937 0.0385899 0.1572607 0.02323173
-0.056535903 0.054441743 0.39685723 0.27702972 0.18388964 0.010291651 0.1985206 -0.08750626
00000000: dbfc 983f 8952 e8be fcac f23e bd8c d5bd
00000010: 31fd 7b3c 47fa 89bc 2583 13bf cb0f 9abe
00000020: 1145 013e c8d5 d93c d518 cfbc 76ec babd
00000030: a889 b1ba 0196 3fbe dc57 913e 4c44 083e
00000040: 2e06 923e cc23 aebe 438e 53be de2a 693e
00000050: b026 5ebe 9773 c3bd a373 493d 8ad7 3e3f
00000060: 81f5 df3d d2e9 cabe c67f 273f fdd4 593e
00000070: 2417 253f a64f 6cbd ec12 1fbc 2a23 bf3e
00000080: 7f74 79bd 2eee 85bc b0bd 9e3d 54da 0e3e
00000090: 2d47 12bf df46 bdbd d407 08bd 5439 0abf
000000a0: 0612 203d cb74 5cbf 5102 21bf 0778 1c3f
000000b0: 0563 623d f0dc 683e 4494 8abd 1ce8 04ba
000000c0: b976 a13c 2cd5 b1bd c69c fc3e 0ddf c5be
000000d0: b401 f23e 49aa 2bbf 2bde c4be 4876 84be
000000e0: 8bb0 303e 9865 b0bd 2f7d 47bf c6f1 ad3e
000000f0: 13c0 b9bd a051 52bf 6ef4 c8be 0a65 4c3d
00000100: ef86 7b3d 8e64 833c 1712 c4bd e791 11be
00000110: 4d58 92bd ea9a 9ebd a943 d6bc 602f 40bd
00000120: 854f 77bd 290f 71bd f57a e13b 8803 623c
00000130: b57b edbc bcab 0bbe 8cb2 1ebe 9294 713d
00000140: 92dd c73c 42ed fdbd 071c 4c3d da86 22bd
00000150: f115 e43d adc0 d63c a135 94bd a59f 34bd
00000160: 7842 fa3d c82a c8bd 5a05 82bd ec07 b2bd
00000170: c0ba 10be 0f48 fa3d 4224 02be 2b46 d63d
00000180: 9c4a 3fbc d0f9 943b f0ca 433d 7ed8 3f3d
00000190: 3d2d 303e 2d28 e0bd 3a66 d33d 4bff bdbc
000001a0: 5c6f 4dbe 8042 dfbd 1e53 2abd 974b 323d
000001b0: db62 4fbc e12f 0cbd f086 443d 5fb7 653d
000001c0: c6f9 233d 15cd aebd 834a 25bd 583a 153d
000001d0: a57e 1bbe e46b 993c cfc6 a13e ddf6 ecbc
000001e0: b6ab b0bd ea80 763c 7918 63bd 4965 14be
000001f0: fc05 4c3d 5544 843d d856 a1bc 61bc 9d3d
00000200: fa1c 30be 98a3 0ebe 7d2e b13e e4a6 4fbd
00000210: 69f2 aabb 7402 03be d76f 0bbc 042f 3abd
00000220: 508e 40bd d5cd da3d 1c62 a73e b3e2 223d
00000230: c1a2 44bd 8549 cd3d 1b66 ab3e 010c a3bd
00000240: 4626 673c 02a8 8abd 76a3 933e ac38 b63e
00000250: 0835 ef3d 0368 bbbd 28c4 9fbd 4c23 02be
00000260: ec2a b43e 9b70 583d 4ae5 1dbe 0b26 623e
00000270: ff67 053f effb d1bd c419 bdbd 1386 a03e
00000280: 00d9 a83b f860 03bf 4441 da3d 93a4 9e3c
00000290: 7f90 d9bd 7550 b93d 284b cb3d 1207 40be
000002a0: e4c1 933e 0304 20be 1858 093e 6176 df3d
000002b0: ecdb e63c e1ab a53e 9d41 ebbd 85fc a93d
000002c0: 7190 37be 803f 3b3e a6a6 a73e 6f2a 80bd
000002d0: 8b56 fa3e 1d3b 9f3d 7214 923e 54cc d8bc
000002e0: 9a68 8e3e 60cc a4bd 60c8 e8be e377 b43e
000002f0: 3fff 95bd 148e 95be e79a febd 8468 b6bb
00000300: 0362 923c 8b66 66bd b485 dc3d e46c 9bbd
00000310: 6b1e b3be 8357 28be 2982 95bd 243a a33d
00000320: d529 94bd 3559 23be f836 96bd 5439 4f3e
00000330: bced 253e 0e27 9f3d 7daa bc3d 2d85 37be
00000340: b66f a1bd 806b 26be 4b64 4b3e 5095 fdbc
00000350: d17c b2bd f275 c23b 5037 d23d 0acb e4bd
00000360: d0fa 0a3d d350 95bc 3bb8 f23d 6350 853d
00000370: ec11 973e 36fd 5dbd a273 0e3e 873f 98bc
00000380: 0c65 8dbc 6540 82be a2ff 3cbe d715 fabd
00000390: 992b 4f3d c986 bebd f4fd cabd 6bcc 073e
000003a0: 8693 66be 44ca 2f3d 8fc4 833d f4e0 203d
000003b0: c149 5ebc ec74 d5bd 3e4f 9ebd 6a44 b83d
000003c0: 3368 3fbe b5f3 56bc 3187 1c3e c5ce 6ebd
000003d0: b341 de3c 7110 1e3d f308 213e 7850 be3c
000003e0: 3192 67bd 4efe 5e3d df30 cb3e d7d6 8d3e
000003f0: 914d 3c3e 509e 283c fc48 4b3e 7b36 b3bd
