checkpoints/reachability_gnn.pt (torch, 173740 bytes, 18 tensors)

node_emb.weight f4 [3, 64]
000000 6a 28 fd 3d 51 da 39 3c f3 49 da 3f 66 d8 88 3f
       0.12361224 0.011343555 1.7053818 1.069104
000010 1a 09 ff bf 4d 68 cd 3e b9 a8 09 3f e2 2d 80 3e
       -1.9924653 0.40118638 0.53773075 0.25035006
000020 d2 d0 19 bf 8f e0 34 bf 35 b7 21 bf 47 67 f9 3e
       -0.6008426 -0.7065515 -0.63170177 0.48711607
000030 d9 41 28 3f 22 c5 03 3c 75 0a 12 bf 71 d1 b8 3f
       0.65725476 0.008042606 -0.57047206 1.4438916
000040 8c a3 22 3f 8f 45 c1 bd 29 6f 28 3e f9 43 38 bf
       0.635308 -0.094370954 0.16448654 -0.7197872
000050 ce d7 30 3e 5e 5b 30 bd 2a ab 25 3f dc f8 16 3f
       0.17269823 -0.043055885 0.647143 0.5897348
000060 49 8a 26 bf 1a df 1d 3f bc ee c3 be aa f5 36 be
       -0.65054756 0.6166855 -0.38268077 -0.17867151
000070 b5 3d 7c 3e b0 be 1c bf 0a a5 37 bf 28 53 e7 3c
       0.24632914 -0.61228466 -0.71736205 0.028237894
000080 62 66 b1 bd 2d 75 f3 3f 37 f7 7a bc 46 79 5e 3f
       -0.08662106 1.9020134 -0.01531773 0.869038
000090 b8 bd 74 bf a5 d3 80 3d 92 b0 b5 3d f5 9f 63 bf
       -0.9560199 0.06290368 0.08871569 -0.8891595
0000a0 7c b5 49 3e 71 e5 a3 be 34 58 8b be 45 33 f2 bf
       0.19698137 -0.32010987 -0.2721573 -1.8921896
0000b0 c1 1a 0a bf 00 93 ef 3e 34 e0 47 bc 4a cc 02 40
       -0.53947073 0.4679184 -0.01219945 2.0437188
0000c0 41 e6 06 3f fe c7 6e 3f 91 ad ae be 9f c0 b3 be
       0.5269509 0.93273914 -0.34116796 -0.35107896
0000d0 9a 8a 3f 3e c9 fe 80 3e 69 df fe bb 02 74 55 3e
       0.18705216 0.25194386 -0.0077780974 0.20845035
0000e0 2c 9c 31 bf 3a 67 9e 3d d5 15 18 bf 53 b0 32 be
       -0.69378924 0.07734533 -0.59408313 -0.17450075
0000f0 f2 aa 9e 3e 20 b5 98 3e a4 46 19 3f bf 3b bd 3e
       0.30989796 0.29825687 0.59873414 0.36959645
000100 61 8e 7b bf d6 c9 82 be 19 70 08 3f ba e0 9d 3e
       -0.9826413 -0.25544614 0.5329605 0.30835515
000110 b1 1f 4f be 9e 3c 81 3f 79 c5 61 3f 87 31 16 bf
       -0.20226933 1.0096624 0.88191944 -0.5866932
000120 dc 42 30 bf 52 c5 62 3f 5c c1 67 bf 37 93 0d bf
       -0.6885202 0.88582337 -0.9052942 -0.5530276
000130 1f 37 8c bf 3f 05 b2 be f3 fd c0 bf 7f 46 54 bf
       -1.0954322 -0.34769627 -1.5077499 -0.8292007
000140 4f 57 37 3f 20 28 a9 3f 3c 4c 7e bf 0e b5 3a bf
       0.716176 1.321537 -0.99335074 -0.7293252
000150 c7 d6 26 bf b6 25 37 bf f1 40 e2 3f 64 65 c5 3f
       -0.65171474 -0.7154192 1.7676069 1.5421567
000160 53 1d ff 3f cb bd a5 bc 30 6c 7f bf 66 d4 b8 3e
       1.9930824 -0.020232102 -0.99774456 0.36099547
000170 99 9c ab be da 21 cd 3f fc 50 b9 3f 18 e1 81 bf
       -0.33517912 1.6025956 1.447784 -1.0146818
000180 de 73 6e bf 83 63 a7 be 66 55 23 3f 6f 65 aa 3e
       -0.9314555 -0.3269311 0.6380218 0.33280513
000190 f8 b4 45 3e 14 d9 7a be b6 8d fa bd d7 85 a7 3d
       0.19307315 -0.24496871 -0.122340605 0.08179825
0001a0 e3 a0 bb 3f 70 d6 58 bf 21 1f 1c bf 94 9c 4d bf
       1.4658474 -0.84702206 -0.60985 -0.80317044
0001b0 d7 13 67 3f 7e b7 1c c0 2d cd d7 3f 88 9a 02 bf
       0.9026465 -2.4486995 1.685949 -0.51017046
0001c0 ee 21 dc 3f 20 01 19 3f ce ba 18 3e c1 92 98 be
       1.7197855 0.5976734 0.1491501 -0.29799464
0001d0 f5 d1 0c bf 91 66 3b 3f c4 fa 87 bf be 82 c3 bd
       -0.5500787 0.7320338 -1.0623403 -0.095464215
0001e0 42 b5 d0 3d 73 c1 92 be 90 73 89 3f 85 d9 4c bf
       0.10190822 -0.28663215 1.0738392 -0.8001941
0001f0 9a 24 82 3e 21 67 65 bf ba 20 43 3f d9 3b 05 bf
       0.2541855 -0.8961049 0.7622181 -0.52044445
000200 7d 1f 1a 3f 21 6c cb be bf 0a de bd 69 41 d8 3d
       0.602043 -0.39730933 -0.108418934 0.10559351
000210 ca 30 fd be bd 52 3d bf 6a 99 36 bf a4 be 03 3e
       -0.49451286 -0.73954374 -0.7132784 0.12865692
000220 1b 06 cc 3e 1f 77 e3 3f e0 7f e1 3f c9 a0 13 3f
       0.39848408 1.7770728 1.7617149 0.57667214
000230 63 ce 1a 3f e3 d8 91 be 9b 7f 6b 3f 68 7f 35 bf
       0.6047117 -0.28485784 0.91991585 -0.7089753
000240 a2 0f 39 3f b5 5c 0f bf 61 11 5b 3e 27 cc bf 3f
       0.7228948 -0.56000835 0.21393348 1.4984177
000250 c7 ee a8 3e d5 f5 87 3f cf e3 8c bf 57 68 8a be
       0.32994673 1.0621897 -1.1007022 -0.2703273
000260 4e 09 4a 3e 06 4b bf bf 90 21 9b 3f 95 d4 75 be
       0.19730112 -1.494477 1.2119617 -0.24006875
000270 69 6a 15 c0 91 13 ce be a9 ad 47 bf ea 82 bd bd
       -2.3346198 -0.40249303 -0.7799936 -0.092534855
000280 ad 37 a6 3f 52 ef a5 bf ae 5d f0 3e e5 e2 69 3f
       1.2985741 -1.296366 0.46946472 0.9136184
000290 21 8d 2e 40 a1 c2 5e c0 2f 10 3d 3f 52 5a c3 be
       2.7273638 -3.4806292 0.7385282 -0.38154846
0002a0 e5 1c b4 be 01 67 42 bf 17 14 f3 3e e2 f7 b5 3d
       -0.35178295 -0.7593842 0.47476265 0.088851705
0002b0 62 38 9e bd a8 d7 4e 3f 73 0e b9 3d 99 77 28 bf
       -0.07725598 0.80797815 0.09035959 -0.6580749
0002c0 df ec 03 be 3d 98 88 bf 55 d1 8e be 45 0d 5f 3e
       -0.12883328 -1.067146 -0.27894083 0.21782406
0002d0 5c 7a de 3f f7 9b 1c c0 a1 17 98 3f 30 79 7d 3e
       1.7381091 -2.4470193 1.1882211 0.2475326
0002e0 02 d7 99 3d 3f 0d db bf fe 5f a2 3f 17 41 a6 3f
       0.075117126 -1.7113417 1.2685544 1.2988614
0002f0 61 27 0e be 3c d8 34 3e d7 41 6d 3f 2c 15 0c bd
       -0.1388221 0.17660612 0.9267859 -0.03419988

edge_emb.weight f4 [3, 64]
000000 09 04 04 bf 9b c3 b9 3e 88 1c 65 3f c3 ce 13 3d
       -0.5156866 0.36282048 0.8949666 0.036085855
000010 1e f1 c3 be b8 fd d4 3f 3a 9e 6b 3f c7 b3 3a 3e
       -0.38269895 1.6639929 0.9203831 0.18232642
000020 9b 30 0f 40 08 b9 a3 bf d8 98 59 3f 05 88 47 3f
       2.2373416 -1.2790842 0.84998846 0.77941924
000030 9d d5 99 bf 35 b1 a0 bf 7b 51 93 bf b1 a1 02 3e
       -1.2018315 -1.2554079 -1.1509241 0.12756993
000040 de d0 9f be 12 b0 cb be 95 28 e4 3f d6 b1 e1 bd
       -0.3121404 -0.39782768 1.7824885 -0.11020248
000050 88 3e a7 bf a0 fd 6c 3f 45 09 b8 bf 21 c2 95 3f
       -1.3065958 0.925745 -1.4377829 1.1699868
000060 9c 29 a2 3f 23 ab b0 3f e2 66 af 3f 69 c7 a5 3f
       1.2668948 1.3802227 1.3703272 1.295148
000070 68 f3 4a bf 02 8e 93 bf 45 61 d2 bf 54 f2 3c 3f
       -0.7927766 -1.1527712 -1.6435934 0.73807263
000080 c2 01 65 bf 2e 74 08 3e d9 9c 54 3d c6 f8 80 bf
       -0.8945581 0.13325569 0.051907394 -1.007592
000090 0a 7c 03 3f a6 81 49 bf 08 27 73 bf 73 2b 20 3f
       0.51361144 -0.7871345 -0.9498143 0.625663
0000a0 05 ee 32 bf 03 7f a5 3f 49 e6 a8 3f c3 5d 5e 3e
       -0.6989444 1.2929386 1.3195277 0.21715455
0000b0 5a ac cc 3f 88 a5 f3 be 88 d8 f1 3e c3 ba 9e 3e
       1.5990098 -0.47587228 0.47235513 0.31001863
0000c0 49 94 c4 3e f4 77 50 bf 4f 07 6c 3f 16 81 6d bf
       0.38394383 -0.81433034 0.9219865 -0.92775095
0000d0 7d a3 aa 3d db 74 b6 bf 51 7b 93 be e6 3f 3a 3f
       0.08331964 -1.4254411 -0.2880502 0.7275375
0000e0 1f 35 6f be c7 09 f2 be 0c d1 2c 3f a0 19 b0 3d
       -0.23360108 -0.47273085 0.6750648 0.085986376
0000f0 47 e9 72 bf 29 6f ff bf 45 0b 8f 3f 99 9e 50 3f
       -0.948872 -1.9955798 1.1175314 0.81492
000100 6f 19 94 bf 01 57 94 bf ea a7 b4 be 1b 08 bb bc
       -1.1570262 -1.1589051 -0.35284358 -0.022831013
000110 a7 98 50 3e 1c 5c 9a 3f f1 6f eb be 7a ed 86 bd
       0.20370732 1.205936 -0.45983842 -0.06588264
000120 0e db b0 bf 6b bf 3a 3f 15 8c 33 bf aa 53 5a be
       -1.381685 0.7294833 -0.70135623 -0.21320978
000130 76 fa 37 3f 82 71 9c 3f 4c af 10 40 61 48 d6 3f
       0.7186655 1.222214 2.2606993 1.6740838
000140 49 f1 92 be 36 7f 95 3e 9a d4 57 bf 07 3b 16 bf
       -0.2869971 0.29198617 -0.8430878 -0.5868382
000150 88 00 87 3f 44 fa be 3c f9 ad 63 3f d7 35 33 bf
       1.0547037 0.023312695 0.88937336 -0.7000403
000160 97 fe 73 bf a8 31 3c bf 18 56 07 bf a0 2a 69 bf
       -0.9531035 -0.7351327 -0.52865744 -0.91080666
000170 89 45 0e 40 4b 11 a2 3d ab 0f 47 3f c5 c1 b0 be
       2.222994 0.079134546 0.7775828 -0.34522834
000180 4d 5b 09 3f e7 1b b4 3b f9 73 b7 3f 6e fe 96 bf
       0.5365494 0.0054964903 1.4332267 -1.1796396
000190 e0 07 1c 3d e0 9e 75 3f 2d 15 20 3c 08 56 bf be
       0.038093448 0.9594555 0.009770674 -0.37370324
0001a0 9c 44 10 bf ac 0b 85 3e 2f 3e 19 3f 8c 43 3c 3f
       -0.5635469 0.25985467 0.5986051 0.7354057
0001b0 79 9d dc bf 0a c0 35 3e 5a a7 3f be 5a a2 86 3f
       -1.7235557 0.17749038 -0.18716183 1.0518296
0001c0 ea 72 b5 be 93 9e c8 bf f0 a1 37 be c4 52 4c 3f
       -0.35439235 -1.5673393 -0.17932868 0.7981379
0001d0 c4 d1 01 bd 84 9c cf 3f 6b 5f 22 40 c9 a6 1c be
       -0.03169419 1.621964 2.5370739 -0.15297998
0001e0 b7 79 4b 3e 38 8e 26 3f dd ed b1 be 0d 75 04 bf
       0.1987065 0.6506076 -0.34751788 -0.51741105
0001f0 0e 22 07 3f e0 da 2d 3f 8d 20 ee 3e 81 27 8a be
       0.5278634 0.679121 0.4650921 -0.26983264
000200 82 c9 2b 3f 99 a3 55 be 48 b1 f3 bf 9a 54 dd bf
       0.6710435 -0.20863189 -1.9038477 -1.7291443
000210 60 cc 17 be f7 00 8e be dc d5 47 3f d7 55 1b bf
       -0.14824057 -0.2773511 0.780607 -0.60677856
000220 1a eb 09 40 89 1d 8d bf ed ee 2a 3f 6a a0 12 be
       2.1549745 -1.1024638 0.6677082 -0.14319006
000230 25 10 11 3f 9e b0 99 bf a6 94 2d 3d 20 ee 28 c0
       0.5666526 -1.2007024 0.04237809 -2.639534
000240 eb 70 e5 3f 6a 95 ab 3f fc 1b fd 3d 3a a7 4b 3f
       1.7925085 1.3404973 0.12358853 0.7955204
000250 e4 af 92 bc 93 94 f3 3f 3c 37 8f bf 23 81 91 bf
       -0.017906137 1.9029716 -1.1188731 -1.1367534
000260 93 6e 8f 3f 41 cb 13 40 c4 09 d9 3e f0 21 2c 3f
       1.120562 2.3092806 0.42390263 0.67239285
000270 ce 97 13 c0 55 3a 69 c0 c5 ea f3 3f 1f 66 5a bf
       -2.3061404 -3.6441853 1.9056021 -0.85312074
000280 22 15 cb 3e a1 90 88 bf 93 cf 73 bf 0f 8f 48 bf
       0.3966456 -1.0669137 -0.9523861 -0.7834329
000290 ff b1 b4 bf 81 68 e3 bf 45 ed 1d bf c9 d3 a4 bf
       -1.411682 -1.7766267 -0.6169017 -1.2877132
0002a0 94 f4 d4 3f ae 0c ef be 82 1a 06 c0 f7 b9 95 bf
       1.6637139 -0.4668936 -2.095368 -1.1697377
0002b0 35 45 0c 40 fc e4 cd bf 63 04 55 3f c0 e5 14 3f
       2.191724 -1.6085505 0.8320982 0.5816307
0002c0 b2 bc f8 3f 8f 3d 82 3f 79 2e e9 be 69 03 b1 3e
       1.9432585 1.0175036 -0.45543268 0.34572914
0002d0 7b 31 dd bf a9 c6 92 3e 7b 09 b0 bf 28 5f 3b 3e
       -1.7280725 0.2866719 -1.3752893 0.18298018
0002e0 8d 87 59 3f c5 92 0a 3f 8c f3 f1 3e 89 eb f0 3f
       0.8497246 0.541302 0.47256124 1.882188
0002f0 bb 09 0c 3e 54 19 a2 3f e7 94 66 bf 3a 11 25 c0
       0.13675587 1.266398 -0.90070957 -2.5791764

root_proj.weight f4 [64, 1]
000000 25 00 d5 3f 23 75 b5 bf d5 1d 0a c0 96 51 26 40
       1.6640669 -1.4176372 -2.1580708 2.5987296
000010 6d 3f 58 bf 86 db 2b bf 2f fa 34 40 3a a0 39 3f
       -0.8447178 -0.6713184 2.82777 0.7251011
000020 80 d5 93 bf 76 19 ca 3f 06 d4 5d be d3 45 2e c0
       -1.154953 1.578902 -0.21662912 -2.7230117
000030 72 99 26 40 a1 b7 0f c0 0f fd c6 bf 66 3e df 3f
       2.6031156 -2.2455828 -1.5545977 1.7440917
000040 f1 97 f8 bf ef f0 1a 40 d2 36 3f 40 76 45 da bf
       -1.9421369 2.4209554 2.987721 -1.7052448
000050 9d bc 3c c0 01 a0 13 c0 54 b7 14 c0 e1 c7 f7 3e
       -2.949012 -2.3066409 -2.3236895 0.48394683
000060 db 64 a8 3f 93 7f 21 40 91 db 5e bc 00 b2 49 40
       1.3155779 2.5234115 -0.013602153 3.1514893
000070 4a 59 81 3f 48 10 1a c0 9f e2 41 bf 92 ed 4f bf
       1.0105374 -2.4072437 -0.7573642 -0.8122188
000080 24 10 c0 3f b7 ce 5c 3f 1d f0 60 bf 4e e4 49 c0
       1.5004926 0.8625292 -0.87866384 -3.1545596
000090 0e 61 26 3f b6 52 5b 3e 9a 56 20 c0 af 45 11 40
       0.64991844 0.2141827 -2.5052857 2.2698781
0000a0 77 ba c9 bf 3c 32 ac 3f 16 43 3d 40 67 71 9f bd
       -1.576003 1.345283 2.9572196 -0.07785302
0000b0 a7 c6 3e 40 01 d4 ef 3f 42 b3 96 bf 5b 99 00 bf
       2.9808748 1.8736573 -1.1773455 -0.50234
0000c0 b1 88 ac 3e dd eb 8b bf 1a 40 ef bf 6d 02 29 40
       0.33698037 -1.0931355 -1.8691437 2.640773
0000d0 58 32 04 40 2b c4 fb bf 26 54 a8 3f 15 e3 b6 bf
       2.0655727 -1.9669241 1.315068 -1.428805
0000e0 cd a5 f8 bf 1c a8 80 3e 01 2e fe 3f 80 10 2d c0
       -1.9425598 0.25128257 1.9857789 -2.704132
0000f0 b7 6c b9 bf b4 9f 40 c0 e6 07 41 bf 48 84 4c c0
       -1.4486302 -3.0097475 -0.7540268 -3.1955738

convs.0.w_self.weight f4 [64, 64]
000000 8b c5 e1 3d 8e 66 17 3e 1f e5 1f 3b cc 21 ff 3d
       0.110240065 0.14785215 0.0024398041 0.12457618
000010 77 e2 d5 bd 4c b8 2b bc f4 e5 83 3c 5d 40 6c bc
       -0.10443585 -0.0104809515 0.016100861 -0.014419642
000020 87 fc 3a bd 29 3a 71 bd 4b c6 87 bb 60 67 89 3d
       -0.045650985 -0.058893356 -0.0041435114 0.0670917
000030 f7 c1 02 3e 98 c1 03 3e 79 bc 84 bd 99 d1 b5 3d
       0.12769304 0.12866819 -0.06481261 0.08877868
000040 90 09 f2 bb b9 f1 48 bd 7b 58 42 3e 79 e0 38 ba
       -0.007386394 -0.04905865 0.18979065 -0.0007052492
000050 98 91 01 bb 58 4e 82 3d 3b 2b 7d bd bd 31 aa bd
       -0.0019770619 0.06362599 -0.061808806 -0.08310268
000060 7a e1 46 bd cf 22 2a 3e d8 90 dd 3d 0d 28 ca 3d
       -0.048554875 0.16614841 0.108186424 0.0987092
000070 48 ea 51 bc 3a 08 65 bd 29 e9 1c be 11 cc fc 3d
       -0.012812205 -0.05591605 -0.15323319 0.1234361
000080 6e d4 e5 3d 96 0d f9 3d 19 d1 90 3c 40 18 15 be
       0.11222158 0.121607944 0.01767783 -0.14560032
000090 58 de a5 3d b0 07 13 3d 3a 38 1e be a6 d3 4b 3d
       0.08099049 0.035896003 -0.15451136 0.04976239
0000a0 61 1c 29 3d 3e 59 cf 3d 66 b6 53 3e 97 cf dd 3d
       0.04128683 0.101244435 0.20675048 0.1083061
0000b0 e4 f2 b7 3d 38 ff c6 3d 78 3a 6b bd ef b9 45 3d
       0.089818746 0.09716648 -0.057428807 0.048273023
0000c0 3a 5c 23 bd 1b 9b 11 be 9c e1 1b be 61 11 bf 3d
       -0.039882876 -0.14219324 -0.15222782 0.09329487
0000d0 81 e4 18 3e 45 79 de 3c 50 74 8f bd 25 e4 e0 bd
       0.14930917 0.027157435 -0.07004607 -0.10981015
0000e0 11 81 a2 bd 14 30 1f 3e 0f 46 a0 bd 01 a8 4a be
       -0.07934774 0.15545684 -0.078258626 -0.19790651
0000f0 33 59 1c 3b b6 c6 19 be 68 fe da bd d1 8c 80 bd
       0.0023856878 -0.15017208 -0.106930554 -0.062768586
000100 c9 d8 7f be 29 39 5c 3e 83 c4 31 3c 9d 69 5e be
       -0.2498504 0.2150618 0.010850075 -0.21719976
000110 80 a6 07 3e f4 e0 be 3d cd f2 6a 3d 92 48 bc bd
       0.13247108 0.0932025 0.05736046 -0.09193529
000120 cb 4d b6 3d 0e af b9 3d 55 ca 48 bd 87 b4 b9 bd
       0.089015566 0.09066592 -0.049021084 -0.09067636
000130 76 a6 c3 bd 1a 8e 8d 3e 47 23 a7 bb 73 9e a7 3d
       -0.09553234 0.27647477 -0.005100641 0.08184519
000140 54 5c 73 bd 47 f8 0f 3c e8 83 87 be 0a ec f3 3d
       -0.059414223 0.008787221 -0.26467824 0.11910255
000150 89 10 e0 bb e3 b2 44 3e a4 41 d4 bd 37 10 3b be
       -0.0068379086 0.19208865 -0.103640825 -0.18267904
000160 16 03 67 3d 66 c8 12 be f2 52 af 3d 89 08 d3 3d
       0.056399427 -0.14334258 0.085607424 0.10304362
000170 6c 68 54 bd 5c 55 8d 3d 3b 93 52 3e 35 25 d1 3d
       -0.051857397 0.06901047 0.20563976 0.10212175
000180 5c 43 fb bd 84 ec 14 be 56 0b ed bc 28 36 42 be
       -0.12268707 -0.14543349 -0.02893607 -0.18965971
000190 6f 00 e1 3d ee dc 8c 3d 90 18 0a be f3 64 5d 3e
       0.10986411 0.068780765 -0.13485932 0.2162054
0001a0 6a eb da bd 25 d7 04 3e 71 b8 92 3d 24 24 05 3e
       -0.10689433 0.12972696 0.07164086 0.13002068
0001b0 7c 51 90 bd 9e 2c 14 bd 5e 77 72 bd 1e 40 c2 bd
       -0.07046792 -0.036175363 -0.05919587 -0.09484886
0001c0 28 d1 43 be b0 4f 64 3c 09 fc 87 3e 85 d5 73 3d
       -0.19122756 0.013935015 0.26559475 0.0595298
0001d0 a1 90 99 be 9c b5 c9 bd 6f 58 85 bd 35 3b ef 3c
       -0.29993156 -0.09849092 -0.06511008 0.029203037
0001e0 61 9e c9 3d 06 49 e0 bd e4 aa 7f 3c 06 89 29 3d
       0.098446615 -0.10951428 0.015604708 0.04139044
0001f0 c3 25 09 be fd b3 27 3d 59 00 02 be cc 8b 01 3e
       -0.13393311 0.040943135 -0.12695445 0.12650985
000200 f6 62 1c be d8 85 7a bd 2c 4d fe bd 9e f5 d3 3c
       -0.15272126 -0.0611628 -0.12417063 0.025873955
000210 16 dc 67 3d 2f 2c 8c bb 73 59 a0 bd cd 73 41 bd
       0.056606375 -0.004277728 -0.07829561 -0.047229577
000220 10 fa cc bd 28 e9 48 bb 22 6b df 3c 81 13 07 bd
       -0.10008633 -0.003065655 0.027272765 -0.032977585
000230 0b 50 16 be ae 07 02 3e 7f b9 d3 3c 2c 83 35 3c
       -0.14678971 0.12698242 0.025845287 0.011078637
000240 5b b6 9b bd 94 a3 6b bd ca 71 76 3d 6f 46 03 be
       -0.07603141 -0.057529047 0.06016711 -0.12819837
000250 64 80 66 3d af 44 fa bd e8 09 98 bd 56 a8 ac bc
       0.056274787 -0.122201316 -0.074237645 -0.021076363
000260 ca 6f 9d bd d8 5e 93 bc 63 bb 8a 3c 5e 68 2c 3d
       -0.07687338 -0.017989561 0.016935056 0.04209172
000270 f7 b7 7f bd f2 30 c2 3d 46 f6 99 3d e3 9d 55 3d
       -0.062431302 0.09481992 0.07517676 0.052152526
000280 67 58 b3 bd 5e 25 92 3d 3d 07 02 be 39 db 98 3d
       -0.08757096 0.071360335 -0.12698074 0.074636884
000290 f1 9a ee bc 96 c3 ff 3d d5 4b 77 bc 6c ec 23 3d
       -0.029126616 0.12488477 -0.015093763 0.04002039
0002a0 82 46 06 be 20 54 c1 3d a3 b7 42 3d 21 df f8 3d
       -0.13112834 0.09439874 0.04753841 0.121519335
0002b0 43 2d ab 3a ff 59 b2 bd d9 dd 3a 3d 07 28 41 bd
       0.0013059754 -0.08708572 0.045621727 -0.047157314
0002c0 8f a9 89 3d 68 56 32 bd 53 19 85 3d 36 29 f1 3d
       0.06721794 -0.043539435 0.06498971 0.117754385
0002d0 71 71 1d be 65 96 d9 3c ab eb 04 bd ad 7a 08 be
       -0.15375306 0.026560972 -0.032451313 -0.13328047
0002e0 1b da f4 3d 4b ef 45 3a 52 30 89 3d cd 66 ab 3d
       0.11955663 0.0007550611 0.066986695 0.08369217
0002f0 5d e9 c6 bd 23 5d 7c 3d 05 56 a5 bd 9d 01 32 bd
       -0.09712479 0.06161226 -0.080730475 -0.04345857
000300 95 cd e7 3d 9d 74 c0 3c 98 26 05 be 01 de 3c 3d
       0.113185085 0.023493106 -0.13003004 0.046110157
000310 9a 73 94 bd bc 91 1b bd 95 6b 7b 3e 6a bf 4f bb
       -0.07248612 -0.03798078 0.24552758 -0.0031699785
000320 b5 5f 98 3d 97 ec bb 3d 93 ce 18 bd 23 5b 5f be
       0.0744013 0.09175985 -0.03730638 -0.2181211
000330 f4 b8 d9 3c a9 66 3b be a0 28 58 bd 3c 08 2b 3e
       0.02657745 -0.1830088 -0.052773118 0.1670236
000340 62 e0 99 bd 99 fe a8 3e cb 06 02 3f 2b ba ff bd
       -0.07513501 0.33006743 0.50791615 -0.124866806
000350 63 1f 2c bf 95 55 c2 be 3c 5c 32 be eb 8a e8 bd
       -0.6723539 -0.3795592 -0.17417997 -0.113546215
000360 f7 ee f0 bc 1b a2 32 3e 89 15 50 3e fe 1a 47 3f
       -0.029410822 0.17444651 0.20320715 0.7777556
000370 b4 56 ab 3c a8 fc 1d be d9 99 96 bd bc c3 55 3d
       0.020915367 -0.15428412 -0.07353563 0.05218862
000380 83 03 be 3e 5e b0 01 3e 00 62 5d be e9 1e 44 be
       0.37112054 0.12664935 -0.21619415 -0.19152416
000390 82 ea f4 3d 49 1e 2a 3e 6e 21 e0 be 32 a5 24 3e
       0.11958791 0.16613115 -0.43775505 0.16078642
0003a0 66 9c 40 be 14 0e 39 3e 2d 54 c6 3e 67 93 e3 3d
       -0.18809661 0.18071777 0.38736096 0.11112099
0003b0 f9 55 65 3e b4 23 6a 3e 64 7e a1 be 36 b9 5b 3d
       0.22396077 0.22865182 -0.3154174 0.053643428
0003c0 b7 1a 87 3d b3 0a a9 bd 99 2f bc bd 49 58 b0 3e
       0.06596892 -0.08253994 -0.09188766 0.34442356
0003d0 4d a2 ca 3d 43 51 9b be f4 33 b0 3e b7 7f 79 bd
       0.09894238 -0.30335435 0.34414637 -0.060912814
0003e0 ae a2 e2 3c 10 5d 00 3e 37 3c 28 3e 2c 34 64 be
       0.027665462 0.125355 0.1642922 -0.22285527
0003f0 21 de 05 be cb ea 94 be 24 84 b9 bd 43 09 0a bf
       -0.13073017 -0.29085383 -0.09058407 -0.5392038

convs.0.w_self.bias f4 [64]
000000 68 26 86 bd 3c e6 66 bd e2 fd ee bd da ba f4 bd
       -0.06550294 -0.056371912 -0.11669518 -0.119497016
000010 83 cc 60 3d 80 54 0e be c7 82 35 be 56 bb a7 bd
       0.054882538 -0.13899422 -0.17725669 -0.08190028
000020 c9 b4 b6 bd fd 7e 2d 3e 6e cf 11 bd 35 6f 2f 3d
       -0.08921201 0.16942973 -0.03559821 0.042830665
000030 88 c0 1a be 6f 2b 2c be 0c ec a1 bd d2 a9 0b bd
       -0.15112507 -0.16813444 -0.079063505 -0.0340975
000040 df 54 d2 3d a6 3c 93 bd e0 53 36 bb 67 a6 b5 3c
       0.10270094 -0.07189302 -0.002782099 0.022174073
000050 d4 83 39 be 8f 9a 12 be da d1 6d 3d 52 d9 0b 3c
       -0.18116695 -0.14316772 0.05806146 0.0085357
000060 39 ad 7c bc 0e 21 51 3d 2f 6b ba 3d aa 88 1e be
       -0.015422159 0.051056914 0.09102475 -0.1548182
000070 ff c2 f3 bd 0b ac b6 3d fe bd cc bd b1 3d 00 3e
       -0.11902427 0.08919533 -0.09997176 0.12523533
000080 53 7b 31 3d cc 30 fd 3c f1 d4 ca bc 93 20 4d be
       0.0433305 0.030907057 -0.024759742 -0.20031957
000090 bf b1 4d be 73 0f ca bd 91 22 3e 3e 32 90 f2 bd
       -0.20087336 -0.09866228 0.18567874 -0.11843909
0000a0 a9 57 20 be 63 bc a4 3d 4d 5d 66 bd f0 3f dd 3b
       -0.1565844 0.080437444 -0.056241322 0.0067520067
0000b0 2a a2 27 be d7 5c 73 bb 30 f3 99 be d2 11 9d bd
       -0.16370454 -0.0037134194 -0.3006835 -0.076694146
0000c0 49 72 04 bd 04 b5 e3 bd a6 7d 91 bd 9e bf 2d bd
       -0.032335553 -0.1111851 -0.07104044 -0.04241907
0000d0 60 16 60 be 26 09 aa bd f7 0a 05 bc 18 65 c7 bd
       -0.21883535 -0.08302526 -0.00812029 -0.09736079
0000e0 7f ab c9 bd 39 0a 5c bd 05 52 4d be e2 21 5a bd
       -0.098471634 -0.053720687 -0.20050819 -0.05325497
0000f0 fa 3a 0d be b5 22 57 bd 3c 56 83 3c ce 7e 99 bd
       -0.13792029 -0.052523334 0.01603233 -0.07494889

convs.0.w_nei.weight f4 [64, 64]
000000 22 24 f5 bd 91 df 9b 3d ce 60 39 be 7d 0d 03 3d
       -0.119697824 0.07611001 -0.18103334 0.031995285
000010 9d 45 36 3e a9 c3 c2 bd 96 e5 a2 bd 45 a8 f1 bd
       0.17799993 -0.095099755 -0.07953946 -0.11799673
000020 f4 64 5b 3e 54 32 93 3e 8a a7 98 3e c8 b8 76 bd
       0.2142523 0.28749335 0.29815322 -0.060234815
000030 6b 70 51 be b2 c6 9d bd ee 95 46 bc 90 bf 9d be
       -0.2045304 -0.07703914 -0.012120707 -0.30810213
000040 82 f9 a6 3d 8b ed f0 bc 0a ba d4 ba 50 36 5d 3e
       0.081530586 -0.029410144 -0.001622976 0.2160275
000050 2e 88 02 be 19 33 91 3d a6 41 ac bc 65 98 17 bd
       -0.12747261 0.07089824 -0.021027397 -0.03701057
000060 ac cf 43 3a da 10 c5 be fc d5 51 3e 87 32 c4 3e
       0.0007469605 -0.3848942 0.20491785 0.383198
000070 98 ca 68 bd 24 b6 03 3e ea 38 eb 3c 5d fd 1e 3d
       -0.056833833 0.1286245 0.028713662 0.038815845
000080 64 4d bb 3d ff 97 c0 be 9b 53 af 3d b4 06 9c bd
       0.091456205 -0.37615964 0.08560868 -0.07618466
000090 d1 24 d4 3e 32 95 46 bd 8d 33 0b 3e c1 fa 22 bc
       0.4143434 -0.048482127 0.13593884 -0.00994748
0000a0 db e8 61 3d 35 43 00 3c 45 a8 be 3d 1d c3 57 3e
       0.05515371 0.007828523 0.093094386 0.21070524
0000b0 09 86 80 3e d1 c2 8c bd ad 78 32 3c 94 84 0b be
       0.2510226 -0.06873096 0.010893029 -0.13624793
0000c0 74 59 17 3d 6e 0c 03 be a1 b6 75 3b 61 53 16 3e
       0.036950544 -0.1279771 0.0037492889 0.14680244
0000d0 5e 2a 3c bd 29 4f 90 be 79 ef ab ba fc 10 2a be
       -0.045938842 -0.28185394 -0.0013117633 -0.16608042
0000e0 5e 58 93 3d 13 6a be bd 18 58 8b 3d 7b d5 34 3e
       0.07194589 -0.09297576 0.06803912 0.17659561
0000f0 6e c1 9e bd aa ac 1e bd 92 3d b4 bd 46 f5 6c be
       -0.077517375 -0.038738884 -0.08800806 -0.2314044
000100 84 e8 2c 3e 5a 5e e4 3c 6c 32 dd bc 70 ec 2c be
       0.16885573 0.027877022 -0.027001582 -0.16887069
000110 04 a2 f5 3d 11 11 40 bc b6 24 11 be 3e bc 41 bc
       0.11993793 -0.011722819 -0.1417416 -0.011824666
000120 0d b1 71 3d 19 c6 27 be 93 37 70 bd 72 33 3a 3d
       0.05900674 -0.16384162 -0.05864675 0.04545922
000130 31 82 5a 3d 3f dc 7e 3d 2a f7 6f 3c a4 1a d3 bd
       0.053346816 0.06222176 0.014646331 -0.10307816
000140 b3 3a 62 bd 8c e2 91 bd 12 8f 12 3e be 7d 93 3d
       -0.05523176 -0.071232885 0.1431239 0.07201718
000150 38 59 e3 3d 18 43 01 3e a0 9a aa bd c3 16 86 bc
       0.111010015 0.1262325 -0.08330274 -0.016368276
000160 07 af 4b bd 1b 36 20 bd a7 14 c5 3d 73 e1 97 bd
       -0.049727466 -0.0391141 0.0962308 -0.07416048
000170 f9 83 73 3e d9 f9 10 be 6d 6d 1a 3d ae e6 21 3e
       0.23780812 -0.1415781 0.037702013 0.15810654
000180 60 7f a3 bd 4e 46 68 3d db 12 7f bd a7 2f 27 be
       -0.07983279 0.056707673 -0.06227384 -0.16326772
000190 f1 79 28 bd af a5 d7 3d 9f 9c 73 bd 5c 75 a7 bd
       -0.041131917 0.105296485 -0.059475537 -0.081766814
0001a0 90 bd 32 be d4 e0 7b 3c 15 c8 76 bc 77 80 f5 3d
       -0.17455125 0.015373427 -0.015062352 0.11987393
0001b0 3a b1 9b bd 3f 07 3d 3e 6f 63 df bd a7 b9 d3 3c
       -0.07602163 0.18459795 -0.10907637 0.025845362
0001c0 c8 ad 0b be 58 ec c0 3d 6f 48 77 bd b0 ed 29 bd
       -0.13640511 0.09420079 -0.060371812 -0.041486442
0001d0 1f 49 e6 bd 38 56 07 bc 92 b7 a2 3d d7 fa e4 bd
       -0.112444155 -0.008260302 0.079451695 -0.111806564
0001e0 0b d6 81 bd be 0e 3a 3e d9 2b af bd 54 8b dc 3b
       -0.063396536 0.18169686 -0.08553285 0.0067304764
0001f0 ea 64 e0 3c 4d 86 3e 3e ea 94 d5 bd 85 7f 60 3e
       0.02739187 0.18605919 -0.10428794 0.21923645
000200 76 64 b3 bd 70 e3 c0 3d bc 7e bc 3d 9c 1f bf bd
       -0.08759396 0.0941838 0.0920386 -0.09332201
000210 60 0c c2 bd 42 3c 97 bd b8 12 b9 bd 20 9f 3e bc
       -0.094750166 -0.0738454 -0.090367734 -0.011634618
000220 18 93 84 bc e0 5d f6 3b 0c 46 35 3d b4 e3 b0 3d
       -0.016183421 0.007518515 0.044256255 0.08637181
000230 a8 a5 f0 bd 48 b3 3d bd 8e 82 fa bd 90 e4 7e bd
       -0.117503464 -0.046313554 -0.122319326 -0.062229693
000240 b8 78 ae 3d e0 79 62 bc 30 2e e4 bd f8 60 3c bd
       0.08519119 -0.013823003 -0.11141622 -0.045990914
000250 98 4c f9 3d 8c ed c1 3d 6c 76 37 3d 50 17 17 bd
       0.12172812 0.094691366 0.04479067 -0.036887467
000260 fc ef 84 bd 68 23 79 3d a4 b7 53 3d 66 9a f8 bd
       -0.06491086 0.06082478 0.051688805 -0.12138824
000270 8e 60 f2 bd 40 54 99 bb e8 ce 93 bd a0 a3 cd 3d
       -0.118348226 -0.004679233 -0.072171986 0.100409746
000280 0c e6 08 bd 0e 03 fa bd 7c 2f ab bd d0 50 f3 bc
       -0.033422515 -0.12207614 -0.08358666 -0.02970162
000290 70 ce 03 bd 30 ac 48 3d 08 57 34 3d 88 e4 52 bd
       -0.032179296 0.048992336 0.044028312 -0.051487476
0002a0 d0 f9 8d 3d 0c 46 38 bd d4 f3 d3 3d 00 29 df 3d
       0.069324136 -0.044988677 0.10349241 0.10896492
0002b0 20 8d c0 bc 1c 1b 95 bd 78 f8 ec 3c c0 a9 6d bc
       -0.023504794 -0.07280561 0.028927073 -0.014505804
0002c0 f4 40 08 bd 88 d3 ac 3c f8 e4 7a 3d 80 89 34 3d
       -0.03326507 0.02109696 0.061253518 0.044076443
0002d0 20 76 69 bb e4 a3 e5 3d 00 cf d9 bb d0 6e f1 bc
       -0.0035623387 0.112129 -0.006646991 -0.029471785
0002e0 30 fd 2a bd 7a 81 fc bd 3c a0 0d bd a0 03 5b bc
       -0.041745365 -0.12329383 -0.03457664 -0.0133675635
0002f0 92 eb 8b 3d 10 69 85 3c f8 00 7d 3d de 7d d0 bd
       0.06832041 0.01628545 0.061768502 -0.10180257
000300 ac 6b d1 3e 53 17 49 be bc 7f 05 be bf 87 ec 3d
       0.4090246 -0.19637804 -0.13037008 0.11549329
000310 51 55 86 3d 47 7c 51 be 88 84 d8 3e 2b 12 4e 3e
       0.065592416 -0.20457564 0.42288613 0.20124118
000320 1a e5 49 bc 7f 7f fc 3e 8f 44 15 3e 82 61 38 bf
       -0.0123226885 0.49316022 0.14576934 -0.72023785
000330 fc 67 10 3f fb e9 9b be 3b 6d 39 be 48 f6 55 3d
       0.5640867 -0.3045195 -0.18108074 0.052236825
000340 f0 23 67 be c2 83 f3 3e f4 7e 6e 3f f4 c6 1f be
       -0.22572303 0.4756146 0.93162465 -0.15603238
000350 be d6 95 bf 5c 7c 1d bf 89 50 ac be 02 1b c9 bc
       -1.1706159 -0.6151788 -0.33655193 -0.024549011
000360 86 06 e1 3d fc 1d f0 3e 0c 36 db 3c 3b c9 0a 40
       0.10987572 0.46897876 0.02675917 2.1685321
000370 d2 76 20 3e 6c ab 05 bf 90 85 6f be 1e 27 30 bd
       0.15670326 -0.52214694 -0.23390794 -0.043006055
000380 fc b9 b6 3e c7 00 d1 bd 38 6b 99 bd c2 81 d6 be
       0.3568877 -0.102052264 -0.074911535 -0.41895872
000390 ed 25 cc 3e 14 16 d4 bd c8 1a 78 bf 0e 59 b0 3e
       0.39872685 -0.103557736 -0.96915865 0.34442943
0003a0 ef ff 11 be 7a 76 94 3d 5f a8 37 3f 37 4d 98 3d
       -0.14257787 0.0724916 0.7174129 0.074366026
0003b0 22 4f 94 3f b2 97 8b 3e c1 91 12 be 6d c7 9f bd
       1.158665 0.27264172 -0.14313413 -0.07801709
0003c0 7a 2d e3 bc a8 04 44 be 76 9a 9a be e6 4c 45 3f
       -0.027731646 -0.19142401 -0.3019597 0.7707046
0003d0 97 8d 92 3e e4 df de be 15 44 8a 3e 63 40 b3 be
       0.2862365 -0.4353019 0.27005067 -0.3501006
0003e0 09 8c 40 be eb 31 8a bd 91 41 05 3f 57 0b ff be
       -0.18803419 -0.06747802 0.5205317 -0.4981334
0003f0 84 56 08 be 32 49 84 bf ec 46 0c be 3c 81 00 c0
       -0.13314253 -1.0334837 -0.1369893 -2.0078878

convs.0.w_edge.weight f4 [64, 64]
000000 e9 52 a2 bd 2b cf a3 bd f9 73 2b be 1c 46 45 bc
       -0.0792597 -0.079984985 -0.16743459 -0.012040641
000010 0a 94 f5 3d 91 4a c5 bd 99 8a 7a be e3 59 f5 bc
       0.11991127 -0.09633363 -0.24466933 -0.029950088
000020 3c c9 df be 50 6e 3a 3e c2 57 98 bd 6a 63 ce bd
       -0.43708217 0.18206143 -0.074386135 -0.100775555
000030 f6 de b7 3e ba b5 4e 3e 4b 2e cb bc e0 a9 32 3d
       0.35912293 0.2018651 -0.024802348 0.043619037
000040 8b 01 d4 bd c7 50 a3 bd 15 b9 de be fc 1f 2d 3d
       -0.10351857 -0.079743914 -0.4350058 0.04226683
000050 76 86 ac 3d 26 15 80 bc bc db 6e 3e c3 8b 4e be
       0.08424084 -0.015635084 0.2332601 -0.20170502
000060 17 1c c6 be 48 df 81 be 48 ff 26 be 0e fc 93 be
       -0.38693306 -0.25365663 -0.1630832 -0.2890324
000070 fb 9a 9c 3c ee 16 9f bc 5e 0e 43 3e 35 b5 8c be
       0.01911687 -0.019420113 0.1904845 -0.27482
000080 d2 12 89 3e 6b 58 c2 3d dc 6b f3 3d 2c 00 5c 3d
       0.2677217 0.09489521 0.11885807 0.0537111
000090 59 f8 0c be 21 a1 38 3e fc 05 10 3e 28 8e 32 be
       -0.13766612 0.18030216 0.14064783 -0.17437041
0000a0 f1 6d 56 3d fd af bf bd 15 22 d2 bd 92 e8 12 3d
       0.052350942 -0.09359739 -0.10260407 0.035866328
0000b0 8d cb 92 be ce 33 73 3d 37 66 00 3d ca 6e c0 3d
       -0.28670922 0.059375577 0.03134748 0.09396131
0000c0 cb 32 74 be 79 58 bb bd 36 f2 81 bd e4 14 35 3e
       -0.23847501 -0.09147734 -0.06345026 0.1768375
0000d0 94 7a 53 3e b8 e1 4d 3e 83 61 bf 3c e3 07 b3 bd
       0.20652229 0.20105636 0.023361927 -0.08741739
0000e0 a0 64 b4 bc 23 87 e7 3d 04 f9 91 be e5 28 f9 3c
       -0.022020638 0.11305072 -0.28510296 0.030415008
0000f0 32 d4 7a 3e 43 f5 0a 3e 96 25 83 3d 5a c6 97 bd
       0.24495009 0.13570122 0.06403653 -0.074108794
000100 9b 67 d3 3d 17 cc ea 3d 50 80 83 bc cc 38 25 3d
       0.103224955 0.11464708 -0.016052395 0.04033737
000110 0f a6 a9 bd 0b 17 37 be ee 35 21 bd 40 44 0b 3e
       -0.08283626 -0.17879884 -0.039358072 0.13600254
000120 ac fe 1e 3e f0 9c 05 be c8 75 ad 3c e8 26 0b bc
       0.15526837 -0.13048148 0.021174327 -0.008493163
000130 70 a9 0d bc 6e 09 49 bd 0e 04 b6 bd 5b 8a 52 be
       -0.008646354 -0.04908126 -0.08887492 -0.20560591
000140 fa bc c8 3d f0 23 9f bd fb 2c 42 3c 76 22 5c 3e
       0.098016694 -0.077705264 0.0118515445 0.21497521
000150 e8 80 ee bb 0a a8 3e 3d b8 46 86 3d 4d c1 67 3d
       -0.0072785504 0.046546973 0.06556457 0.05658083
000160 99 30 a1 3d 12 76 87 3d 9d dc a2 bd 97 72 1d 3e
       0.078705974 0.06614317 -0.07952235 0.15375744
000170 53 0d 4c be 30 cb c0 3d a6 56 de 3b b9 f0 5a 3d
       -0.19926958 0.09413755 0.0067852316 0.053452227
000180 7b 18 a7 3d 2e 2e 74 3d a9 06 89 bd e3 9b d8 3d
       0.08158966 0.059614353 -0.066907234 0.10576608
000190 f8 63 d0 bc c6 62 02 3d 02 a8 06 3e 67 b1 2f 3d
       -0.025438294 0.03183248 0.13150027 0.042893793
0001a0 5e 65 84 bc 77 d5 06 be f7 c5 38 be 26 11 38 be
       -0.016161617 -0.13167368 -0.18044268 -0.17975292
0001b0 d7 8d 9f bc bd 33 bb bd 7f ce d0 3d 21 db 2e bd
       -0.019476814 -0.09140728 0.10195636 -0.042689446
0001c0 78 8b 0d be 42 89 56 3e ed bf 11 be 56 c1 89 bd
       -0.13822734 0.20950797 -0.1423337 -0.06726329
0001d0 f6 b9 77 3d ff 83 cf bc 10 8e 50 be 0e 89 81 3d
       0.06048008 -0.025331495 -0.20366693 0.06324969
0001e0 a7 78 3c 3d 9f 95 04 be 98 25 f2 3d 0c d7 6c 3d
       0.0460135 -0.12947701 0.11823577 0.057822272
0001f0 48 02 79 bd 45 99 94 3d ce 0a 6d bd 36 a6 20 3d
       -0.06079319 0.07255796 -0.057871632 0.03922101
000200 44 fe c6 3d b8 68 89 3c 94 4f 38 bd 20 ae 89 3b
       0.09716466 0.016773567 -0.044997767 0.0042016655
000210 70 e2 51 bc 28 22 81 bc 58 6e df bd 78 e3 c7 bc
       -0.012810335 -0.015763357 -0.10909718 -0.024400458
000220 f2 aa 94 bd a0 d7 94 bb b0 15 79 bd c0 3a 14 bd
       -0.07259168 -0.004542306 -0.0608117 -0.03618884
000230 38 22 ef bc d8 3d 4a bd 48 27 af bc b4 14 13 3d
       -0.029191121 -0.049375385 -0.021381035 0.035908416
000240 fa c0 d8 3d ac 0f f5 3d a6 63 b5 3d dc da 6f bd
       0.10583682 0.1196588 0.08856897 -0.05855833
000250 68 79 7c bd dc f0 d5 bd 2a f0 a6 bd 1c 30 12 bd
       -0.06163922 -0.10446331 -0.081512764 -0.035690412
000260 fe d5 e5 3d 46 f6 c4 bd ac 88 c4 3d 64 16 c9 3d
       0.112224564 -0.096172854 0.095963806 0.09818724
000270 80 5c bf 3b f0 26 c1 bc b0 2d e8 3d b0 94 39 bc
       0.0058398843 -0.023578137 0.11336839 -0.011326954
000280 de 24 97 3d 16 b7 96 3d 88 f2 f1 3c b8 17 38 3d
       0.07380079 0.073591396 0.029534593 0.044944495
000290 54 bf 44 bd b2 e1 a0 bd b0 e4 af bd cc bd a8 bd
       -0.048034027 -0.07855548 -0.085885406 -0.08239326
0002a0 c0 24 13 3d e0 85 7a bc 24 e2 42 3d be 96 83 3d
       0.03592372 -0.015290707 0.047578946 0.06425236
0002b0 d4 9d 7f bd 4c ac 7a 3d 60 55 8e 3d f8 b0 bb 3c
       -0.062406376 0.06119947 0.06949878 0.022911534
0002c0 30 d8 9b 3c b6 e0 da 3d 80 61 48 bd 40 2d c4 3a
       0.019023985 0.106873915 -0.04892111 0.0014967099
0002d0 0c 5f 16 bd d0 4e 12 3c 88 90 d1 3d 70 94 e6 bd
       -0.036711738 0.008929923 0.10232645 -0.11258781
0002e0 dc e2 02 bd ec 88 46 bd b0 62 9d 3c b0 b4 6c bd
       -0.03195463 -0.048470423 0.019212097 -0.057789505
0002f0 0a b1 93 bd 30 b4 50 3c 94 58 6c bd d8 87 07 3d
       -0.07211502 0.012738273 -0.057701662 0.033088535
000300 c9 ae 81 3d 86 4c 1f 3d ea 2d 26 3f e9 26 53 3f
       0.06332166 0.038891338 0.6491381 0.8248125
000310 dc ac a2 3d 1d 0c 26 3d 32 7e 31 be 57 a8 d6 3e
       0.079431266 0.040538896 -0.17333296 0.41925308
000320 93 83 4e bd 51 32 23 bb d9 7a 18 3d f5 c8 04 3e
       -0.050418448 -0.0024901817 0.03722653 0.12967284
000330 d5 39 09 bf 9a 6b 2c bd 1f 95 a5 bd 31 12 70 3e
       -0.5360387 -0.042094804 -0.08085083 0.2344444
000340 14 64 94 be 08 21 71 be 35 08 5e 3e d8 90 ad bd
       -0.28982604 -0.23547757 0.21682818 -0.084748924
000350 ad f9 ba bd 38 22 f7 bc f8 4f 1c bd db 10 00 3f
       -0.09129653 -0.030167684 -0.0381622 0.5002572
000360 c7 85 01 be fa 64 5c be bd f1 b7 3b 1e 26 95 bd
       -0.12648688 -0.21522895 0.0056135342 -0.07282661
000370 bd fb 79 3b 9c 5f 88 3e 32 e5 df be 9e e9 1e 3f
       0.0038144432 0.26635444 -0.4372955 0.6207522
000380 3b 81 ff be 8d 03 b2 3e c9 3f fd 3d 4a fd 04 3e
       -0.49903283 0.34768334 0.12365682 0.12987247
000390 b9 51 f3 3d a8 a7 a0 3d a4 76 99 3d 75 17 30 3f
       0.11880822 0.07844478 0.07493332 0.6878579
0003a0 15 56 a3 bd 78 22 de bc 6b 81 37 3e 72 d1 fc 3d
       -0.07975403 -0.027116045 0.17920463 0.12344636
0003b0 bd 7b 09 be 43 78 71 3e c7 98 28 be a4 3c 4c bd
       -0.13426109 0.23581032 -0.1646453 -0.04986252
0003c0 99 f6 e7 be 57 5f c6 bd 7d 85 bb 3c 77 0b 6f be
       -0.45305327 -0.096861534 0.0228908 -0.23344217
0003d0 1d 2c 64 3f 51 0c 0e bd 2d c1 83 3c 85 9a 98 3d
       0.8912981 -0.034679715 0.016083324 0.07451347
0003e0 90 7e 89 be c5 5e bf bc fd 01 14 be 7f f6 cc be
       -0.26854372 -0.02336062 -0.14453883 -0.40031812
0003f0 b9 78 8c be ca e3 53 be 8c 34 d6 3d 0e 92 31 3f
       -0.27435854 -0.20692363 0.10459241 0.69363487

convs.1.w_self.weight f4 [64, 64]
000000 bd bd 2f 3e 37 35 26 be 8e 57 bb bc 44 4d 8b 3e
       0.17162223 -0.16231237 -0.022868898 0.27207386
000010 39 20 64 be 29 cb c8 3d ab fc 59 3e 7f f4 a2 be
       -0.22277917 0.09804375 0.21287791 -0.3182716
000020 29 16 35 3d 73 38 36 3e 66 36 3d be c9 0e 85 be
       0.044210587 0.17794971 -0.18477783 -0.25987843
000030 ca 55 a2 bd d4 b8 f9 ba 48 9c 89 be 77 44 7c 3e
       -0.07926519 -0.0019052275 -0.26877046 0.24635492
000040 36 b4 82 3e 15 56 e7 3d d7 b0 75 3d b3 f2 76 bc
       0.25528115 0.11295716 0.0599831 -0.015072512
000050 17 ea 53 3e 15 f4 e4 bd cc 9f 6e 3e 56 e8 0b 3d
       0.20694767 -0.111793675 0.23303145 0.03415712
000060 02 4f fc 3d 37 15 a3 3d 41 cb 30 3d ca 70 9b bc
       0.12319757 0.07963031 0.043162588 -0.01897468
000070 f8 e0 81 bd 88 7b e4 bc d2 83 0f 3e 67 11 76 be
       -0.063417375 -0.027890936 0.14015129 -0.24030076
000080 61 41 07 bf 5e 9c 90 3c dd 1b 12 bf 3d 51 c9 bd
       -0.52834135 0.017652687 -0.57073766 -0.09829948
000090 c0 79 b8 3c a7 b5 8d 3c fc b8 41 3e 17 e9 00 be
       0.022518992 0.017298533 0.18918222 -0.12588917
0000a0 22 a7 d4 bd 75 c1 3a 3e a8 19 a1 bc 9c 73 5d be
       -0.103834406 0.1823786 -0.019665554 -0.21626133
0000b0 eb 5a c0 be b4 c9 0a bf 7d e9 18 be 31 7e c9 be
       -0.37569365 -0.54214025 -0.14932819 -0.3935409
0000c0 fc b4 05 bd 27 33 1a bd 95 13 bb 3c de 26 b8 be
       -0.032643303 -0.03764644 0.022836486 -0.35967153
0000d0 ce 80 12 be 3f 85 a8 3d 6d 34 9e 3d 11 ab 2d bc
       -0.14306948 0.0822854 0.07724843 -0.010599867
0000e0 b0 fe b7 3d a3 75 e0 3d 94 9d 74 3c 94 12 d3 3c
       0.08984125 0.109599374 0.014930148 0.025765695
0000f0 9e a3 ae be e5 85 f5 bd 9b fb 22 be 8e cb 45 3d
       -0.34109205 -0.11988429 -0.15916292 0.048289828
000100 f1 8d ca bd b9 55 02 3e 12 7c a7 3d 80 61 c2 3c
       -0.098903544 0.12728013 0.081779614 0.023728132
000110 d7 77 7a be e9 6f da 3d 31 1a 12 bd 0d 95 c8 bd
       -0.24459778 0.106658764 -0.03566951 -0.09794054
000120 db ea 11 3b eb ed 75 bd ef df 6e bc 49 e8 bc bd
       0.002226523 -0.06004135 -0.014579757 -0.092239924
000130 66 d2 3a 3e 7b f3 e7 bc 2c f5 bc 3d 51 ce 3b be
       0.18244323 -0.028314343 0.0922645 -0.18340422
000140 66 19 f9 bd b8 8c f3 bd 5e 17 07 be 96 64 c0 3c
       -0.121630475 -0.11892074 -0.13192508 0.023485463
000150 ae 65 cd 3c be 2e 1f bd 67 b5 9a bd fd 4a 23 be
       0.025072899 -0.038862936 -0.07554131 -0.15946575
000160 b4 4b e8 bc f6 3a ca bc ae 4d bd bc bf e2 8f bd
       -0.02835641 -0.024686318 -0.02310833 -0.0702567
000170 31 d5 a3 bc 3b 8a 97 3d e7 0b 6c 3b 3e 3a 36 be
       -0.019999119 0.07399412 0.0036017837 -0.17795655
000180 d4 43 5c 3d 2c 6e e9 bd 5d cc 46 be 57 2a a3 3d
       0.053775623 -0.11397967 -0.19413896 0.0796706
000190 5c 46 81 3d 6f 3b 32 3e d5 fe 65 3c 21 22 07 be
       0.06312248 0.17405485 0.0140378075 -0.13196613
0001a0 58 5c 23 bd e1 34 9c bd 2e 58 0e 3e 0c 64 7e 3e
       -0.039882988 -0.07627273 0.13900825 0.24842852
0001b0 7a 73 eb bd 67 a9 1a 3e d6 ea 26 bc e3 c2 3a 3d
       -0.11496635 0.15103684 -0.010187825 0.045596015
0001c0 12 88 ac 3c 56 af 53 bd 22 ff 1c 3b d4 9a 4a 3e
       0.021060977 -0.051680885 0.0023955782 0.19785625
0001d0 d4 d4 06 be 37 1e 0d be 0c ad 68 3d 94 b4 77 3d
       -0.13167125 -0.13781057 0.056805655 0.060474947
0001e0 ef df 96 3d 09 6b f1 bd ce b1 70 bd e2 00 8a 3d
       0.07366931 -0.117879935 -0.058763318 0.0673845
0001f0 bc 10 5e 3e 5d 3f bb 3c 89 96 aa 3b 09 57 d0 bd
       0.21686071 0.022857362 0.0052059335 -0.10172851
000200 2d b5 1c bd a4 ad d5 bd c6 c1 2c bb 6f 4f 0e 3e
       -0.03825872 -0.1043351 -0.0026360615 0.13897489
000210 7c f9 d4 3d cf 45 85 3d a7 e2 11 be d3 7c 3e bd
       0.10399148 0.065074556 -0.14246617 -0.04650576
000220 01 50 79 be 70 43 25 be 8b 0b 93 bd 69 69 6f bc
       -0.24346925 -0.16139007 -0.07179936 -0.014612534
000230 f7 dd b5 bd 1e c8 2a be 07 fc fb 3c 44 e8 d9 bc
       -0.08880227 -0.16677901 0.030759824 -0.02660001
000240 b1 66 91 be 6c 4f 79 3d 97 f6 1c 3c f9 ce c8 bc
       -0.2839866 0.06086676 0.009580276 -0.024512755
000250 50 c0 a2 bd d0 4e 18 3e eb 38 bd bd f5 fb d4 be
       -0.07946837 0.14873815 -0.09239372 -0.41598478
000260 f7 4a e6 bd 5e a7 e2 bd 10 30 55 be 7f d2 3e be
       -0.11244767 -0.11067079 -0.20819116 -0.18634985
000270 56 98 cc 3d 5d d3 55 bd f2 aa 80 3d 39 79 9c bd
       0.09989993 -0.052203525 0.06282605 -0.07640309
000280 f0 cc e6 bc 42 00 3a bd 18 12 37 bd 3f 4b 10 3d
       -0.028173894 -0.045410402 -0.04469499 0.03522801
000290 09 66 19 3e 87 61 d3 bd 34 65 11 3d 95 f9 c3 3d
       0.1498033 -0.10321336 0.035496905 0.09569088
0002a0 58 86 95 3d 5e 92 83 3d 35 09 e2 3c 2c 8e 1c 3d
       0.07301015 0.06424402 0.02759228 0.038221523
0002b0 1e a1 9e 3d 31 a4 8e be 63 bb 8b 3e 14 60 09 3d
       0.077455744 -0.27859643 0.27291402 0.033538893
0002c0 57 ca 2d be 91 13 af bd 99 cf 2f bd 6e af 84 bd
       -0.16971718 -0.08548654 -0.04292259 -0.06478773
0002d0 cc 63 8b 3b 3b ff 27 3e 70 d5 ea 3d 18 5d c6 3c
       0.00425384 0.16405956 0.11466491 0.024214312
0002e0 26 42 d9 bd 82 66 c2 bd dd a0 b5 bd a6 46 d3 3d
       -0.1060832 -0.09492208 -0.08868573 0.103162095
0002f0 b7 15 9c 3d b0 4a 23 bd 76 72 ce 3d 54 63 2b bd
       0.07621329 -0.03986615 0.100804254 -0.041842774
000300 ee 3d 93 3d 27 75 19 be c9 4f 45 bd 38 b8 01 be
       0.071895465 -0.14986096 -0.048171792 -0.1266793
000310 c9 1a a2 3d 03 9a 5a 3c 4f b7 85 bc 15 36 6f 3d
       0.07915265 0.013342383 -0.01632276 0.058401186
000320 2c 19 8b bc f3 e3 f9 3d 3c c8 40 3e f4 62 e9 3c
       -0.016979776 0.12201681 0.18826383 0.028489567
000330 e3 ee c3 3c ac e9 15 3c 06 bf 3b bc d3 7d 2e bd
       0.023917621 0.00914995 -0.011459118 -0.042600464
000340 e8 ca c0 3d 18 52 9c 3d 5a 2a 91 3d 9e 15 a2 bd
       0.09413701 0.07632846 0.07088156 -0.079142794
000350 e6 a1 bf 3c 02 08 88 3d 6e f6 8e 3d 86 df ab be
       0.023392629 0.06642152 0.069805965 -0.33568972
000360 1a 9d 7c bc 90 2a 87 bd c6 ea a0 3d f0 00 98 bd
       -0.015418315 -0.06599915 0.078572795 -0.07422054
000370 84 17 33 be 9f eb 3c bd 6d b2 7d bd ef 53 93 bd
       -0.17489439 -0.046123143 -0.06193774 -0.071937434
000380 24 cd 3d bd c5 8a 3f bc 6a ed 89 3d c2 56 9b bc
       -0.046338215 -0.0116908 0.06734736 -0.018962268
000390 27 18 9e 3b ac 40 88 3d ac c6 12 3d 14 ad 6e bd
       0.0048246565 0.0665296 0.035834 -0.05827053
0003a0 6d 2a c9 bd 94 43 11 3d 18 2e 43 bd e3 ac 81 3d
       -0.09822545 0.03546484 -0.04765138 0.06331804
0003b0 b5 39 0e 3d 47 6f 9c be 5b 42 20 bd 94 85 83 3c
       0.034723002 -0.30553648 -0.03912578 0.016054906
0003c0 a3 be 2b bd 8a d9 08 3d d9 6a 0b be b0 2e 4f bd
       -0.041929852 0.033410586 -0.13614978 -0.050581634
0003d0 e4 4b a4 3c 09 ae 6f bb 6a b7 46 3d 34 aa 93 bd
       0.020055719 -0.003657224 0.04851476 -0.07210198
0003e0 c2 1b d5 3c c7 46 5f 3d 19 e9 06 bd 88 98 8c 3d
       0.026014213 0.054510858 -0.032937143 0.068650305
0003f0 ae 3d e5 bc 24 8c cd bc 76 bb 65 3c 9d 13 be bd
       -0.027983513 -0.025091238 0.014021745 -0.09281085

convs.1.w_self.bias f4 [64]
000000 2a d4 f4 3d 20 a7 ea 3e 4a 5b ce bd 21 2c e5 3a
       0.119545296 0.4583063 -0.10076006 0.0017484465
000010 ba eb 09 3e 46 5e 08 3e 49 7a 5d bd fc 58 a9 3b
       0.13468829 0.13317212 -0.0540717 0.0051680785
000020 a9 d8 12 bd ce 81 ec 3d 1f 02 a0 3b f7 ab 1b be
       -0.035851154 0.11548196 0.0048830654 -0.15202318
000030 84 80 58 bd 65 af 02 3c b8 d0 c8 be fd 1a 3f be
       -0.052856937 0.007976388 -0.3922174 -0.18662639
000040 ea 84 82 3d c3 8b ee 3c 32 a2 5d 3d ec 67 91 3d
       0.063730076 0.029119378 0.05410976 0.070999
000050 26 69 e8 bd 00 9d 86 bd 82 82 ce bd b4 fc d5 3d
       -0.113481805 -0.06572914 -0.10083486 0.1044859
000060 cd a7 c6 3c 77 8d 1e be b8 a7 12 bd eb da 5d 3c
       0.024249936 -0.15483652 -0.03580448 0.013540964
000070 ae a8 4e 3d 88 e4 5d 3c f8 2e 29 3d f2 bf 69 3b
       0.050453834 0.013543256 0.04130456 0.0035667387
000080 0f 0b 2f 3d d4 31 b7 3c 0e 24 8e bd a5 5a 3f 3c
       0.042735156 0.022362627 -0.06940471 0.011679326
000090 c3 d8 22 be af ac 43 bd b4 6f ec 38 41 36 77 be
       -0.15903 -0.047772106 0.00011274163 -0.2414179
0000a0 81 4a 60 bd 85 0c cc 3d f4 f5 1e 3d 17 e0 d8 3c
       -0.054758552 0.099633254 0.038808778 0.026474042
0000b0 a9 85 a6 3d 06 71 01 be 63 d9 7a bd 9d 51 e1 3a
       0.081309624 -0.12640771 -0.061242472 0.001719046
0000c0 12 0c 46 be 94 4e a5 3d f4 a3 e0 bd 12 22 61 bd
       -0.19340542 0.08071628 -0.109687716 -0.054964133
0000d0 48 59 cc bd bc b0 26 bd de 4e 24 be a7 ed 4e be
       -0.099779665 -0.04069589 -0.1604571 -0.20207845
0000e0 77 42 22 3b 03 ab 80 3d 60 76 2e be ee 55 f4 bd
       0.0024758854 0.06282618 -0.17037344 -0.11930452
0000f0 09 cc de bd dc 0f d1 bd 7f ed 0b 3e 88 3d 0f 3d
       -0.1087876 -0.10208103 0.13664816 0.03497079
